<?xml version="1.0" ?>
<net name="human-pose-estimation-0001" version="10">
	<layers>
		<layer id="0" name="205120558329" type="Const" version="opset1">
			<data element_type="f16" offset="0" shape="" size="2"/>
			<output>
				<port id="0" precision="FP16"/>
			</output>
		</layer>
		<layer id="1" name="205220569562" type="Const" version="opset1">
			<data element_type="f16" offset="2" shape="" size="2"/>
			<output>
				<port id="0" precision="FP16"/>
			</output>
		</layer>
		<layer id="2" name="205320579055" type="Const" version="opset1">
			<data element_type="f16" offset="0" shape="" size="2"/>
			<output>
				<port id="0" precision="FP16"/>
			</output>
		</layer>
		<layer id="3" name="205420588782" type="Const" version="opset1">
			<data element_type="f16" offset="2" shape="" size="2"/>
			<output>
				<port id="0" precision="FP16"/>
			</output>
		</layer>
		<layer id="4" name="187118758362" type="Const" version="opset1">
			<data element_type="f16" offset="0" shape="" size="2"/>
			<output>
				<port id="0" precision="FP16"/>
			</output>
		</layer>
		<layer id="5" name="187218768662" type="Const" version="opset1">
			<data element_type="f16" offset="4" shape="" size="2"/>
			<output>
				<port id="0" precision="FP16"/>
			</output>
		</layer>
		<layer id="6" name="187318778395" type="Const" version="opset1">
			<data element_type="f16" offset="0" shape="" size="2"/>
			<output>
				<port id="0" precision="FP16"/>
			</output>
		</layer>
		<layer id="7" name="187418789373" type="Const" version="opset1">
			<data element_type="f16" offset="4" shape="" size="2"/>
			<output>
				<port id="0" precision="FP16"/>
			</output>
		</layer>
		<layer id="8" name="144114458497" type="Const" version="opset1">
			<data element_type="f16" offset="0" shape="" size="2"/>
			<output>
				<port id="0" precision="FP16"/>
			</output>
		</layer>
		<layer id="9" name="144214468356" type="Const" version="opset1">
			<data element_type="f16" offset="6" shape="" size="2"/>
			<output>
				<port id="0" precision="FP16"/>
			</output>
		</layer>
		<layer id="10" name="144314479538" type="Const" version="opset1">
			<data element_type="f16" offset="0" shape="" size="2"/>
			<output>
				<port id="0" precision="FP16"/>
			</output>
		</layer>
		<layer id="11" name="144414488707" type="Const" version="opset1">
			<data element_type="f16" offset="6" shape="" size="2"/>
			<output>
				<port id="0" precision="FP16"/>
			</output>
		</layer>
		<layer id="12" name="133113358980" type="Const" version="opset1">
			<data element_type="f16" offset="0" shape="" size="2"/>
			<output>
				<port id="0" precision="FP16"/>
			</output>
		</layer>
		<layer id="13" name="133213369589" type="Const" version="opset1">
			<data element_type="f16" offset="8" shape="" size="2"/>
			<output>
				<port id="0" precision="FP16"/>
			</output>
		</layer>
		<layer id="14" name="133313378818" type="Const" version="opset1">
			<data element_type="f16" offset="0" shape="" size="2"/>
			<output>
				<port id="0" precision="FP16"/>
			</output>
		</layer>
		<layer id="15" name="133413388347" type="Const" version="opset1">
			<data element_type="f16" offset="8" shape="" size="2"/>
			<output>
				<port id="0" precision="FP16"/>
			</output>
		</layer>
		<layer id="16" name="131113159553" type="Const" version="opset1">
			<data element_type="f16" offset="0" shape="" size="2"/>
			<output>
				<port id="0" precision="FP16"/>
			</output>
		</layer>
		<layer id="17" name="131213169583" type="Const" version="opset1">
			<data element_type="f16" offset="10" shape="" size="2"/>
			<output>
				<port id="0" precision="FP16"/>
			</output>
		</layer>
		<layer id="18" name="131313179406" type="Const" version="opset1">
			<data element_type="f16" offset="0" shape="" size="2"/>
			<output>
				<port id="0" precision="FP16"/>
			</output>
		</layer>
		<layer id="19" name="131413188596" type="Const" version="opset1">
			<data element_type="f16" offset="10" shape="" size="2"/>
			<output>
				<port id="0" precision="FP16"/>
			</output>
		</layer>
		<layer id="20" name="179117958377" type="Const" version="opset1">
			<data element_type="f16" offset="0" shape="" size="2"/>
			<output>
				<port id="0" precision="FP16"/>
			</output>
		</layer>
		<layer id="21" name="179217969514" type="Const" version="opset1">
			<data element_type="f16" offset="12" shape="" size="2"/>
			<output>
				<port id="0" precision="FP16"/>
			</output>
		</layer>
		<layer id="22" name="179317978950" type="Const" version="opset1">
			<data element_type="f16" offset="0" shape="" size="2"/>
			<output>
				<port id="0" precision="FP16"/>
			</output>
		</layer>
		<layer id="23" name="179417989028" type="Const" version="opset1">
			<data element_type="f16" offset="12" shape="" size="2"/>
			<output>
				<port id="0" precision="FP16"/>
			</output>
		</layer>
		<layer id="24" name="110111058428" type="Const" version="opset1">
			<data element_type="f16" offset="0" shape="" size="2"/>
			<output>
				<port id="0" precision="FP16"/>
			</output>
		</layer>
		<layer id="25" name="110211068197" type="Const" version="opset1">
			<data element_type="f16" offset="14" shape="" size="2"/>
			<output>
				<port id="0" precision="FP16"/>
			</output>
		</layer>
		<layer id="26" name="110311078890" type="Const" version="opset1">
			<data element_type="f16" offset="0" shape="" size="2"/>
			<output>
				<port id="0" precision="FP16"/>
			</output>
		</layer>
		<layer id="27" name="110411089601" type="Const" version="opset1">
			<data element_type="f16" offset="14" shape="" size="2"/>
			<output>
				<port id="0" precision="FP16"/>
			</output>
		</layer>
		<layer id="28" name="141114159607" type="Const" version="opset1">
			<data element_type="f16" offset="0" shape="" size="2"/>
			<output>
				<port id="0" precision="FP16"/>
			</output>
		</layer>
		<layer id="29" name="141214169535" type="Const" version="opset1">
			<data element_type="f16" offset="16" shape="" size="2"/>
			<output>
				<port id="0" precision="FP16"/>
			</output>
		</layer>
		<layer id="30" name="141314179097" type="Const" version="opset1">
			<data element_type="f16" offset="0" shape="" size="2"/>
			<output>
				<port id="0" precision="FP16"/>
			</output>
		</layer>
		<layer id="31" name="141414189499" type="Const" version="opset1">
			<data element_type="f16" offset="16" shape="" size="2"/>
			<output>
				<port id="0" precision="FP16"/>
			</output>
		</layer>
		<layer id="32" name="185118558797" type="Const" version="opset1">
			<data element_type="f16" offset="0" shape="" size="2"/>
			<output>
				<port id="0" precision="FP16"/>
			</output>
		</layer>
		<layer id="33" name="185218569076" type="Const" version="opset1">
			<data element_type="f16" offset="18" shape="" size="2"/>
			<output>
				<port id="0" precision="FP16"/>
			</output>
		</layer>
		<layer id="34" name="185318578734" type="Const" version="opset1">
			<data element_type="f16" offset="0" shape="" size="2"/>
			<output>
				<port id="0" precision="FP16"/>
			</output>
		</layer>
		<layer id="35" name="185418589592" type="Const" version="opset1">
			<data element_type="f16" offset="18" shape="" size="2"/>
			<output>
				<port id="0" precision="FP16"/>
			</output>
		</layer>
		<layer id="36" name="219121959172" type="Const" version="opset1">
			<data element_type="f16" offset="0" shape="" size="2"/>
			<output>
				<port id="0" precision="FP16"/>
			</output>
		</layer>
		<layer id="37" name="219221968494" type="Const" version="opset1">
			<data element_type="f16" offset="20" shape="" size="2"/>
			<output>
				<port id="0" precision="FP16"/>
			</output>
		</layer>
		<layer id="38" name="219321979505" type="Const" version="opset1">
			<data element_type="f16" offset="0" shape="" size="2"/>
			<output>
				<port id="0" precision="FP16"/>
			</output>
		</layer>
		<layer id="39" name="219421988530" type="Const" version="opset1">
			<data element_type="f16" offset="20" shape="" size="2"/>
			<output>
				<port id="0" precision="FP16"/>
			</output>
		</layer>
		<layer id="40" name="214121459454" type="Const" version="opset1">
			<data element_type="f16" offset="0" shape="" size="2"/>
			<output>
				<port id="0" precision="FP16"/>
			</output>
		</layer>
		<layer id="41" name="214221468755" type="Const" version="opset1">
			<data element_type="f16" offset="22" shape="" size="2"/>
			<output>
				<port id="0" precision="FP16"/>
			</output>
		</layer>
		<layer id="42" name="214321478569" type="Const" version="opset1">
			<data element_type="f16" offset="0" shape="" size="2"/>
			<output>
				<port id="0" precision="FP16"/>
			</output>
		</layer>
		<layer id="43" name="214421488938" type="Const" version="opset1">
			<data element_type="f16" offset="22" shape="" size="2"/>
			<output>
				<port id="0" precision="FP16"/>
			</output>
		</layer>
		<layer id="44" name="151115158383" type="Const" version="opset1">
			<data element_type="f16" offset="0" shape="" size="2"/>
			<output>
				<port id="0" precision="FP16"/>
			</output>
		</layer>
		<layer id="45" name="151215168881" type="Const" version="opset1">
			<data element_type="f16" offset="24" shape="" size="2"/>
			<output>
				<port id="0" precision="FP16"/>
			</output>
		</layer>
		<layer id="46" name="151315178200" type="Const" version="opset1">
			<data element_type="f16" offset="0" shape="" size="2"/>
			<output>
				<port id="0" precision="FP16"/>
			</output>
		</layer>
		<layer id="47" name="151415188710" type="Const" version="opset1">
			<data element_type="f16" offset="24" shape="" size="2"/>
			<output>
				<port id="0" precision="FP16"/>
			</output>
		</layer>
		<layer id="48" name="207120759436" type="Const" version="opset1">
			<data element_type="f16" offset="0" shape="" size="2"/>
			<output>
				<port id="0" precision="FP16"/>
			</output>
		</layer>
		<layer id="49" name="207220768464" type="Const" version="opset1">
			<data element_type="f16" offset="26" shape="" size="2"/>
			<output>
				<port id="0" precision="FP16"/>
			</output>
		</layer>
		<layer id="50" name="207320779004" type="Const" version="opset1">
			<data element_type="f16" offset="0" shape="" size="2"/>
			<output>
				<port id="0" precision="FP16"/>
			</output>
		</layer>
		<layer id="51" name="207420789193" type="Const" version="opset1">
			<data element_type="f16" offset="26" shape="" size="2"/>
			<output>
				<port id="0" precision="FP16"/>
			</output>
		</layer>
		<layer id="52" name="189118959247" type="Const" version="opset1">
			<data element_type="f16" offset="0" shape="" size="2"/>
			<output>
				<port id="0" precision="FP16"/>
			</output>
		</layer>
		<layer id="53" name="189218968365" type="Const" version="opset1">
			<data element_type="f16" offset="28" shape="" size="2"/>
			<output>
				<port id="0" precision="FP16"/>
			</output>
		</layer>
		<layer id="54" name="189318978905" type="Const" version="opset1">
			<data element_type="f16" offset="0" shape="" size="2"/>
			<output>
				<port id="0" precision="FP16"/>
			</output>
		</layer>
		<layer id="55" name="189418988512" type="Const" version="opset1">
			<data element_type="f16" offset="28" shape="" size="2"/>
			<output>
				<port id="0" precision="FP16"/>
			</output>
		</layer>
		<layer id="56" name="108110859544" type="Const" version="opset1">
			<data element_type="f16" offset="0" shape="" size="2"/>
			<output>
				<port id="0" precision="FP16"/>
			</output>
		</layer>
		<layer id="57" name="108210869382" type="Const" version="opset1">
			<data element_type="f16" offset="30" shape="" size="2"/>
			<output>
				<port id="0" precision="FP16"/>
			</output>
		</layer>
		<layer id="58" name="108310879400" type="Const" version="opset1">
			<data element_type="f16" offset="0" shape="" size="2"/>
			<output>
				<port id="0" precision="FP16"/>
			</output>
		</layer>
		<layer id="59" name="108410888509" type="Const" version="opset1">
			<data element_type="f16" offset="30" shape="" size="2"/>
			<output>
				<port id="0" precision="FP16"/>
			</output>
		</layer>
		<layer id="60" name="157115759271" type="Const" version="opset1">
			<data element_type="f16" offset="0" shape="" size="2"/>
			<output>
				<port id="0" precision="FP16"/>
			</output>
		</layer>
		<layer id="61" name="157215768893" type="Const" version="opset1">
			<data element_type="f16" offset="32" shape="" size="2"/>
			<output>
				<port id="0" precision="FP16"/>
			</output>
		</layer>
		<layer id="62" name="157315779490" type="Const" version="opset1">
			<data element_type="f16" offset="0" shape="" size="2"/>
			<output>
				<port id="0" precision="FP16"/>
			</output>
		</layer>
		<layer id="63" name="157415788740" type="Const" version="opset1">
			<data element_type="f16" offset="32" shape="" size="2"/>
			<output>
				<port id="0" precision="FP16"/>
			</output>
		</layer>
		<layer id="64" name="165116559358" type="Const" version="opset1">
			<data element_type="f16" offset="0" shape="" size="2"/>
			<output>
				<port id="0" precision="FP16"/>
			</output>
		</layer>
		<layer id="65" name="165216568830" type="Const" version="opset1">
			<data element_type="f16" offset="34" shape="" size="2"/>
			<output>
				<port id="0" precision="FP16"/>
			</output>
		</layer>
		<layer id="66" name="165316578776" type="Const" version="opset1">
			<data element_type="f16" offset="0" shape="" size="2"/>
			<output>
				<port id="0" precision="FP16"/>
			</output>
		</layer>
		<layer id="67" name="165416589277" type="Const" version="opset1">
			<data element_type="f16" offset="34" shape="" size="2"/>
			<output>
				<port id="0" precision="FP16"/>
			</output>
		</layer>
		<layer id="68" name="221122159616" type="Const" version="opset1">
			<data element_type="f16" offset="0" shape="" size="2"/>
			<output>
				<port id="0" precision="FP16"/>
			</output>
		</layer>
		<layer id="69" name="221222169523" type="Const" version="opset1">
			<data element_type="f16" offset="36" shape="" size="2"/>
			<output>
				<port id="0" precision="FP16"/>
			</output>
		</layer>
		<layer id="70" name="221322179154" type="Const" version="opset1">
			<data element_type="f16" offset="0" shape="" size="2"/>
			<output>
				<port id="0" precision="FP16"/>
			</output>
		</layer>
		<layer id="71" name="221422188656" type="Const" version="opset1">
			<data element_type="f16" offset="36" shape="" size="2"/>
			<output>
				<port id="0" precision="FP16"/>
			</output>
		</layer>
		<layer id="72" name="172117259475" type="Const" version="opset1">
			<data element_type="f16" offset="0" shape="" size="2"/>
			<output>
				<port id="0" precision="FP16"/>
			</output>
		</layer>
		<layer id="73" name="172217268218" type="Const" version="opset1">
			<data element_type="f16" offset="38" shape="" size="2"/>
			<output>
				<port id="0" precision="FP16"/>
			</output>
		</layer>
		<layer id="74" name="172317278746" type="Const" version="opset1">
			<data element_type="f16" offset="0" shape="" size="2"/>
			<output>
				<port id="0" precision="FP16"/>
			</output>
		</layer>
		<layer id="75" name="172417288761" type="Const" version="opset1">
			<data element_type="f16" offset="38" shape="" size="2"/>
			<output>
				<port id="0" precision="FP16"/>
			</output>
		</layer>
		<layer id="76" name="115111559025" type="Const" version="opset1">
			<data element_type="f16" offset="0" shape="" size="2"/>
			<output>
				<port id="0" precision="FP16"/>
			</output>
		</layer>
		<layer id="77" name="115211568815" type="Const" version="opset1">
			<data element_type="f16" offset="40" shape="" size="2"/>
			<output>
				<port id="0" precision="FP16"/>
			</output>
		</layer>
		<layer id="78" name="115311578983" type="Const" version="opset1">
			<data element_type="f16" offset="0" shape="" size="2"/>
			<output>
				<port id="0" precision="FP16"/>
			</output>
		</layer>
		<layer id="79" name="115411588806" type="Const" version="opset1">
			<data element_type="f16" offset="40" shape="" size="2"/>
			<output>
				<port id="0" precision="FP16"/>
			</output>
		</layer>
		<layer id="80" name="169116958404" type="Const" version="opset1">
			<data element_type="f16" offset="0" shape="" size="2"/>
			<output>
				<port id="0" precision="FP16"/>
			</output>
		</layer>
		<layer id="81" name="169216969223" type="Const" version="opset1">
			<data element_type="f16" offset="42" shape="" size="2"/>
			<output>
				<port id="0" precision="FP16"/>
			</output>
		</layer>
		<layer id="82" name="169316978995" type="Const" version="opset1">
			<data element_type="f16" offset="0" shape="" size="2"/>
			<output>
				<port id="0" precision="FP16"/>
			</output>
		</layer>
		<layer id="83" name="169416988506" type="Const" version="opset1">
			<data element_type="f16" offset="42" shape="" size="2"/>
			<output>
				<port id="0" precision="FP16"/>
			</output>
		</layer>
		<layer id="84" name="286128658236" type="Const" version="opset1">
			<data element_type="f16" offset="44" shape="" size="2"/>
			<output>
				<port id="0" precision="FP16"/>
			</output>
		</layer>
		<layer id="85" name="286228668500" type="Const" version="opset1">
			<data element_type="f16" offset="46" shape="" size="2"/>
			<output>
				<port id="0" precision="FP16"/>
			</output>
		</layer>
		<layer id="86" name="286328679001" type="Const" version="opset1">
			<data element_type="f16" offset="44" shape="" size="2"/>
			<output>
				<port id="0" precision="FP16"/>
			</output>
		</layer>
		<layer id="87" name="286428688785" type="Const" version="opset1">
			<data element_type="f16" offset="46" shape="" size="2"/>
			<output>
				<port id="0" precision="FP16"/>
			</output>
		</layer>
		<layer id="88" name="117111759520" type="Const" version="opset1">
			<data element_type="f16" offset="0" shape="" size="2"/>
			<output>
				<port id="0" precision="FP16"/>
			</output>
		</layer>
		<layer id="89" name="117211768920" type="Const" version="opset1">
			<data element_type="f16" offset="48" shape="" size="2"/>
			<output>
				<port id="0" precision="FP16"/>
			</output>
		</layer>
		<layer id="90" name="117311779469" type="Const" version="opset1">
			<data element_type="f16" offset="0" shape="" size="2"/>
			<output>
				<port id="0" precision="FP16"/>
			</output>
		</layer>
		<layer id="91" name="117411788296" type="Const" version="opset1">
			<data element_type="f16" offset="48" shape="" size="2"/>
			<output>
				<port id="0" precision="FP16"/>
			</output>
		</layer>
		<layer id="92" name="203120358308" type="Const" version="opset1">
			<data element_type="f16" offset="0" shape="" size="2"/>
			<output>
				<port id="0" precision="FP16"/>
			</output>
		</layer>
		<layer id="93" name="203220368311" type="Const" version="opset1">
			<data element_type="f16" offset="50" shape="" size="2"/>
			<output>
				<port id="0" precision="FP16"/>
			</output>
		</layer>
		<layer id="94" name="203320378614" type="Const" version="opset1">
			<data element_type="f16" offset="0" shape="" size="2"/>
			<output>
				<port id="0" precision="FP16"/>
			</output>
		</layer>
		<layer id="95" name="203420388326" type="Const" version="opset1">
			<data element_type="f16" offset="50" shape="" size="2"/>
			<output>
				<port id="0" precision="FP16"/>
			</output>
		</layer>
		<layer id="96" name="103110358989" type="Const" version="opset1">
			<data element_type="f16" offset="0" shape="" size="2"/>
			<output>
				<port id="0" precision="FP16"/>
			</output>
		</layer>
		<layer id="97" name="103210368722" type="Const" version="opset1">
			<data element_type="f16" offset="52" shape="" size="2"/>
			<output>
				<port id="0" precision="FP16"/>
			</output>
		</layer>
		<layer id="98" name="103310378974" type="Const" version="opset1">
			<data element_type="f16" offset="0" shape="" size="2"/>
			<output>
				<port id="0" precision="FP16"/>
			</output>
		</layer>
		<layer id="99" name="103410388317" type="Const" version="opset1">
			<data element_type="f16" offset="52" shape="" size="2"/>
			<output>
				<port id="0" precision="FP16"/>
			</output>
		</layer>
		<layer id="100" name="113111358671" type="Const" version="opset1">
			<data element_type="f16" offset="0" shape="" size="2"/>
			<output>
				<port id="0" precision="FP16"/>
			</output>
		</layer>
		<layer id="101" name="113211369559" type="Const" version="opset1">
			<data element_type="f16" offset="54" shape="" size="2"/>
			<output>
				<port id="0" precision="FP16"/>
			</output>
		</layer>
		<layer id="102" name="113311379340" type="Const" version="opset1">
			<data element_type="f16" offset="0" shape="" size="2"/>
			<output>
				<port id="0" precision="FP16"/>
			</output>
		</layer>
		<layer id="103" name="113411388902" type="Const" version="opset1">
			<data element_type="f16" offset="54" shape="" size="2"/>
			<output>
				<port id="0" precision="FP16"/>
			</output>
		</layer>
		<layer id="104" name="288128858209" type="Const" version="opset1">
			<data element_type="f16" offset="0" shape="" size="2"/>
			<output>
				<port id="0" precision="FP16"/>
			</output>
		</layer>
		<layer id="105" name="288228869181" type="Const" version="opset1">
			<data element_type="f16" offset="56" shape="" size="2"/>
			<output>
				<port id="0" precision="FP16"/>
			</output>
		</layer>
		<layer id="106" name="288328878254" type="Const" version="opset1">
			<data element_type="f16" offset="0" shape="" size="2"/>
			<output>
				<port id="0" precision="FP16"/>
			</output>
		</layer>
		<layer id="107" name="288428889067" type="Const" version="opset1">
			<data element_type="f16" offset="56" shape="" size="2"/>
			<output>
				<port id="0" precision="FP16"/>
			</output>
		</layer>
		<layer id="108" name="153115358389" type="Const" version="opset1">
			<data element_type="f16" offset="58" shape="" size="2"/>
			<output>
				<port id="0" precision="FP16"/>
			</output>
		</layer>
		<layer id="109" name="153215368860" type="Const" version="opset1">
			<data element_type="f16" offset="60" shape="" size="2"/>
			<output>
				<port id="0" precision="FP16"/>
			</output>
		</layer>
		<layer id="110" name="153315378713" type="Const" version="opset1">
			<data element_type="f16" offset="58" shape="" size="2"/>
			<output>
				<port id="0" precision="FP16"/>
			</output>
		</layer>
		<layer id="111" name="153415388452" type="Const" version="opset1">
			<data element_type="f16" offset="60" shape="" size="2"/>
			<output>
				<port id="0" precision="FP16"/>
			</output>
		</layer>
		<layer id="112" name="210121059238" type="Const" version="opset1">
			<data element_type="f16" offset="62" shape="" size="2"/>
			<output>
				<port id="0" precision="FP16"/>
			</output>
		</layer>
		<layer id="113" name="210221069226" type="Const" version="opset1">
			<data element_type="f16" offset="64" shape="" size="2"/>
			<output>
				<port id="0" precision="FP16"/>
			</output>
		</layer>
		<layer id="114" name="210321078371" type="Const" version="opset1">
			<data element_type="f16" offset="62" shape="" size="2"/>
			<output>
				<port id="0" precision="FP16"/>
			</output>
		</layer>
		<layer id="115" name="210421088677" type="Const" version="opset1">
			<data element_type="f16" offset="64" shape="" size="2"/>
			<output>
				<port id="0" precision="FP16"/>
			</output>
		</layer>
		<layer id="116" name="217121759064" type="Const" version="opset1">
			<data element_type="f16" offset="66" shape="" size="2"/>
			<output>
				<port id="0" precision="FP16"/>
			</output>
		</layer>
		<layer id="117" name="217221769379" type="Const" version="opset1">
			<data element_type="f16" offset="68" shape="" size="2"/>
			<output>
				<port id="0" precision="FP16"/>
			</output>
		</layer>
		<layer id="118" name="217321779385" type="Const" version="opset1">
			<data element_type="f16" offset="66" shape="" size="2"/>
			<output>
				<port id="0" precision="FP16"/>
			</output>
		</layer>
		<layer id="119" name="217421788566" type="Const" version="opset1">
			<data element_type="f16" offset="68" shape="" size="2"/>
			<output>
				<port id="0" precision="FP16"/>
			</output>
		</layer>
		<layer id="120" name="7107129007" type="Const" version="opset1">
			<data element_type="f16" offset="70" shape="1,128,1,1" size="256"/>
			<output>
				<port id="0" precision="FP16">
					<dim>1</dim>
					<dim>128</dim>
					<dim>1</dim>
					<dim>1</dim>
				</port>
			</output>
		</layer>
		<layer id="121" name="145114558185" type="Const" version="opset1">
			<data element_type="f16" offset="326" shape="1,128,1,1" size="256"/>
			<output>
				<port id="0" precision="FP16">
					<dim>1</dim>
					<dim>128</dim>
					<dim>1</dim>
					<dim>1</dim>
				</port>
			</output>
		</layer>
		<layer id="122" name="145214569586" type="Const" version="opset1">
			<data element_type="f16" offset="582" shape="1,128,1,1" size="256"/>
			<output>
				<port id="0" precision="FP16">
					<dim>1</dim>
					<dim>128</dim>
					<dim>1</dim>
					<dim>1</dim>
				</port>
			</output>
		</layer>
		<layer id="123" name="145314579280" type="Const" version="opset1">
			<data element_type="f16" offset="326" shape="1,128,1,1" size="256"/>
			<output>
				<port id="0" precision="FP16">
					<dim>1</dim>
					<dim>128</dim>
					<dim>1</dim>
					<dim>1</dim>
				</port>
			</output>
		</layer>
		<layer id="124" name="145414588161" type="Const" version="opset1">
			<data element_type="f16" offset="582" shape="1,128,1,1" size="256"/>
			<output>
				<port id="0" precision="FP16">
					<dim>1</dim>
					<dim>128</dim>
					<dim>1</dim>
					<dim>1</dim>
				</port>
			</output>
		</layer>
		<layer id="125" name="149114959352" type="Const" version="opset1">
			<data element_type="f16" offset="838" shape="" size="2"/>
			<output>
				<port id="0" precision="FP16"/>
			</output>
		</layer>
		<layer id="126" name="149214969430" type="Const" version="opset1">
			<data element_type="f16" offset="840" shape="" size="2"/>
			<output>
				<port id="0" precision="FP16"/>
			</output>
		</layer>
		<layer id="127" name="149314979016" type="Const" version="opset1">
			<data element_type="f16" offset="838" shape="" size="2"/>
			<output>
				<port id="0" precision="FP16"/>
			</output>
		</layer>
		<layer id="128" name="149414988422" type="Const" version="opset1">
			<data element_type="f16" offset="840" shape="" size="2"/>
			<output>
				<port id="0" precision="FP16"/>
			</output>
		</layer>
		<layer id="129" name="7067088593" type="Const" version="opset1">
			<data element_type="f16" offset="70" shape="1,128,1,1" size="256"/>
			<output>
				<port id="0" precision="FP16">
					<dim>1</dim>
					<dim>128</dim>
					<dim>1</dim>
					<dim>1</dim>
				</port>
			</output>
		</layer>
		<layer id="130" name="211121158773" type="Const" version="opset1">
			<data element_type="f16" offset="842" shape="1,128,1,1" size="256"/>
			<output>
				<port id="0" precision="FP16">
					<dim>1</dim>
					<dim>128</dim>
					<dim>1</dim>
					<dim>1</dim>
				</port>
			</output>
		</layer>
		<layer id="131" name="211221169610" type="Const" version="opset1">
			<data element_type="f16" offset="1098" shape="1,128,1,1" size="256"/>
			<output>
				<port id="0" precision="FP16">
					<dim>1</dim>
					<dim>128</dim>
					<dim>1</dim>
					<dim>1</dim>
				</port>
			</output>
		</layer>
		<layer id="132" name="211321179100" type="Const" version="opset1">
			<data element_type="f16" offset="842" shape="1,128,1,1" size="256"/>
			<output>
				<port id="0" precision="FP16">
					<dim>1</dim>
					<dim>128</dim>
					<dim>1</dim>
					<dim>1</dim>
				</port>
			</output>
		</layer>
		<layer id="133" name="211421188824" type="Const" version="opset1">
			<data element_type="f16" offset="1098" shape="1,128,1,1" size="256"/>
			<output>
				<port id="0" precision="FP16">
					<dim>1</dim>
					<dim>128</dim>
					<dim>1</dim>
					<dim>1</dim>
				</port>
			</output>
		</layer>
		<layer id="134" name="193119359367" type="Const" version="opset1">
			<data element_type="f16" offset="1354" shape="" size="2"/>
			<output>
				<port id="0" precision="FP16"/>
			</output>
		</layer>
		<layer id="135" name="193219368821" type="Const" version="opset1">
			<data element_type="f16" offset="1356" shape="" size="2"/>
			<output>
				<port id="0" precision="FP16"/>
			</output>
		</layer>
		<layer id="136" name="193319378842" type="Const" version="opset1">
			<data element_type="f16" offset="1354" shape="" size="2"/>
			<output>
				<port id="0" precision="FP16"/>
			</output>
		</layer>
		<layer id="137" name="193419388812" type="Const" version="opset1">
			<data element_type="f16" offset="1356" shape="" size="2"/>
			<output>
				<port id="0" precision="FP16"/>
			</output>
		</layer>
		<layer id="138" name="7027049316" type="Const" version="opset1">
			<data element_type="f16" offset="70" shape="1,128,1,1" size="256"/>
			<output>
				<port id="0" precision="FP16">
					<dim>1</dim>
					<dim>128</dim>
					<dim>1</dim>
					<dim>1</dim>
				</port>
			</output>
		</layer>
		<layer id="139" name="175117558866" type="Const" version="opset1">
			<data element_type="f16" offset="1358" shape="1,128,1,1" size="256"/>
			<output>
				<port id="0" precision="FP16">
					<dim>1</dim>
					<dim>128</dim>
					<dim>1</dim>
					<dim>1</dim>
				</port>
			</output>
		</layer>
		<layer id="140" name="175217568923" type="Const" version="opset1">
			<data element_type="f16" offset="1614" shape="1,128,1,1" size="256"/>
			<output>
				<port id="0" precision="FP16">
					<dim>1</dim>
					<dim>128</dim>
					<dim>1</dim>
					<dim>1</dim>
				</port>
			</output>
		</layer>
		<layer id="141" name="175317579508" type="Const" version="opset1">
			<data element_type="f16" offset="1358" shape="1,128,1,1" size="256"/>
			<output>
				<port id="0" precision="FP16">
					<dim>1</dim>
					<dim>128</dim>
					<dim>1</dim>
					<dim>1</dim>
				</port>
			</output>
		</layer>
		<layer id="142" name="175417589034" type="Const" version="opset1">
			<data element_type="f16" offset="1614" shape="1,128,1,1" size="256"/>
			<output>
				<port id="0" precision="FP16">
					<dim>1</dim>
					<dim>128</dim>
					<dim>1</dim>
					<dim>1</dim>
				</port>
			</output>
		</layer>
		<layer id="143" name="105110559556" type="Const" version="opset1">
			<data element_type="f16" offset="1870" shape="" size="2"/>
			<output>
				<port id="0" precision="FP16"/>
			</output>
		</layer>
		<layer id="144" name="105210568599" type="Const" version="opset1">
			<data element_type="f16" offset="1872" shape="" size="2"/>
			<output>
				<port id="0" precision="FP16"/>
			</output>
		</layer>
		<layer id="145" name="105310579529" type="Const" version="opset1">
			<data element_type="f16" offset="1870" shape="" size="2"/>
			<output>
				<port id="0" precision="FP16"/>
			</output>
		</layer>
		<layer id="146" name="105410589337" type="Const" version="opset1">
			<data element_type="f16" offset="1872" shape="" size="2"/>
			<output>
				<port id="0" precision="FP16"/>
			</output>
		</layer>
		<layer id="147" name="197119759199" type="Const" version="opset1">
			<data element_type="f16" offset="0" shape="" size="2"/>
			<output>
				<port id="0" precision="FP16"/>
			</output>
		</layer>
		<layer id="148" name="197219768551" type="Const" version="opset1">
			<data element_type="f16" offset="1874" shape="" size="2"/>
			<output>
				<port id="0" precision="FP16"/>
			</output>
		</layer>
		<layer id="149" name="197319778284" type="Const" version="opset1">
			<data element_type="f16" offset="0" shape="" size="2"/>
			<output>
				<port id="0" precision="FP16"/>
			</output>
		</layer>
		<layer id="150" name="197419788515" type="Const" version="opset1">
			<data element_type="f16" offset="1874" shape="" size="2"/>
			<output>
				<port id="0" precision="FP16"/>
			</output>
		</layer>
		<layer id="151" name="215121559517" type="Const" version="opset1">
			<data element_type="f16" offset="0" shape="" size="2"/>
			<output>
				<port id="0" precision="FP16"/>
			</output>
		</layer>
		<layer id="152" name="215221568683" type="Const" version="opset1">
			<data element_type="f16" offset="1876" shape="" size="2"/>
			<output>
				<port id="0" precision="FP16"/>
			</output>
		</layer>
		<layer id="153" name="215321578851" type="Const" version="opset1">
			<data element_type="f16" offset="0" shape="" size="2"/>
			<output>
				<port id="0" precision="FP16"/>
			</output>
		</layer>
		<layer id="154" name="215421589307" type="Const" version="opset1">
			<data element_type="f16" offset="1876" shape="" size="2"/>
			<output>
				<port id="0" precision="FP16"/>
			</output>
		</layer>
		<layer id="155" name="177117759214" type="Const" version="opset1">
			<data element_type="f16" offset="1878" shape="1,512,1,1" size="1024"/>
			<output>
				<port id="0" precision="FP16">
					<dim>1</dim>
					<dim>512</dim>
					<dim>1</dim>
					<dim>1</dim>
				</port>
			</output>
		</layer>
		<layer id="156" name="177217768449" type="Const" version="opset1">
			<data element_type="f16" offset="2902" shape="1,512,1,1" size="1024"/>
			<output>
				<port id="0" precision="FP16">
					<dim>1</dim>
					<dim>512</dim>
					<dim>1</dim>
					<dim>1</dim>
				</port>
			</output>
		</layer>
		<layer id="157" name="177317778374" type="Const" version="opset1">
			<data element_type="f16" offset="1878" shape="1,512,1,1" size="1024"/>
			<output>
				<port id="0" precision="FP16">
					<dim>1</dim>
					<dim>512</dim>
					<dim>1</dim>
					<dim>1</dim>
				</port>
			</output>
		</layer>
		<layer id="158" name="177417788167" type="Const" version="opset1">
			<data element_type="f16" offset="2902" shape="1,512,1,1" size="1024"/>
			<output>
				<port id="0" precision="FP16">
					<dim>1</dim>
					<dim>512</dim>
					<dim>1</dim>
					<dim>1</dim>
				</port>
			</output>
		</layer>
		<layer id="159" name="9719759634" type="Const" version="opset1">
			<data element_type="f16" offset="0" shape="" size="2"/>
			<output>
				<port id="0" precision="FP16"/>
			</output>
		</layer>
		<layer id="160" name="9729769253" type="Const" version="opset1">
			<data element_type="f16" offset="3926" shape="" size="2"/>
			<output>
				<port id="0" precision="FP16"/>
			</output>
		</layer>
		<layer id="161" name="9739779094" type="Const" version="opset1">
			<data element_type="f16" offset="0" shape="" size="2"/>
			<output>
				<port id="0" precision="FP16"/>
			</output>
		</layer>
		<layer id="162" name="9749789274" type="Const" version="opset1">
			<data element_type="f16" offset="3926" shape="" size="2"/>
			<output>
				<port id="0" precision="FP16"/>
			</output>
		</layer>
		<layer id="163" name="9519558179" type="Const" version="opset1">
			<data element_type="f16" offset="1878" shape="1,512,1,1" size="1024"/>
			<output>
				<port id="0" precision="FP16">
					<dim>1</dim>
					<dim>512</dim>
					<dim>1</dim>
					<dim>1</dim>
				</port>
			</output>
		</layer>
		<layer id="164" name="9529568686" type="Const" version="opset1">
			<data element_type="f16" offset="3928" shape="1,512,1,1" size="1024"/>
			<output>
				<port id="0" precision="FP16">
					<dim>1</dim>
					<dim>512</dim>
					<dim>1</dim>
					<dim>1</dim>
				</port>
			</output>
		</layer>
		<layer id="165" name="9539578473" type="Const" version="opset1">
			<data element_type="f16" offset="1878" shape="1,512,1,1" size="1024"/>
			<output>
				<port id="0" precision="FP16">
					<dim>1</dim>
					<dim>512</dim>
					<dim>1</dim>
					<dim>1</dim>
				</port>
			</output>
		</layer>
		<layer id="166" name="9549588650" type="Const" version="opset1">
			<data element_type="f16" offset="3928" shape="1,512,1,1" size="1024"/>
			<output>
				<port id="0" precision="FP16">
					<dim>1</dim>
					<dim>512</dim>
					<dim>1</dim>
					<dim>1</dim>
				</port>
			</output>
		</layer>
		<layer id="167" name="121112159301" type="Const" version="opset1">
			<data element_type="f16" offset="0" shape="" size="2"/>
			<output>
				<port id="0" precision="FP16"/>
			</output>
		</layer>
		<layer id="168" name="121212168953" type="Const" version="opset1">
			<data element_type="f16" offset="4952" shape="" size="2"/>
			<output>
				<port id="0" precision="FP16"/>
			</output>
		</layer>
		<layer id="169" name="121312178386" type="Const" version="opset1">
			<data element_type="f16" offset="0" shape="" size="2"/>
			<output>
				<port id="0" precision="FP16"/>
			</output>
		</layer>
		<layer id="170" name="121412188725" type="Const" version="opset1">
			<data element_type="f16" offset="4952" shape="" size="2"/>
			<output>
				<port id="0" precision="FP16"/>
			</output>
		</layer>
		<layer id="171" name="173117359019" type="Const" version="opset1">
			<data element_type="f16" offset="1878" shape="1,512,1,1" size="1024"/>
			<output>
				<port id="0" precision="FP16">
					<dim>1</dim>
					<dim>512</dim>
					<dim>1</dim>
					<dim>1</dim>
				</port>
			</output>
		</layer>
		<layer id="172" name="173217369136" type="Const" version="opset1">
			<data element_type="f16" offset="4954" shape="1,512,1,1" size="1024"/>
			<output>
				<port id="0" precision="FP16">
					<dim>1</dim>
					<dim>512</dim>
					<dim>1</dim>
					<dim>1</dim>
				</port>
			</output>
		</layer>
		<layer id="173" name="173317378563" type="Const" version="opset1">
			<data element_type="f16" offset="1878" shape="1,512,1,1" size="1024"/>
			<output>
				<port id="0" precision="FP16">
					<dim>1</dim>
					<dim>512</dim>
					<dim>1</dim>
					<dim>1</dim>
				</port>
			</output>
		</layer>
		<layer id="174" name="173417388302" type="Const" version="opset1">
			<data element_type="f16" offset="4954" shape="1,512,1,1" size="1024"/>
			<output>
				<port id="0" precision="FP16">
					<dim>1</dim>
					<dim>512</dim>
					<dim>1</dim>
					<dim>1</dim>
				</port>
			</output>
		</layer>
		<layer id="175" name="127112759022" type="Const" version="opset1">
			<data element_type="f16" offset="0" shape="" size="2"/>
			<output>
				<port id="0" precision="FP16"/>
			</output>
		</layer>
		<layer id="176" name="127212769646" type="Const" version="opset1">
			<data element_type="f16" offset="5978" shape="" size="2"/>
			<output>
				<port id="0" precision="FP16"/>
			</output>
		</layer>
		<layer id="177" name="127312779073" type="Const" version="opset1">
			<data element_type="f16" offset="0" shape="" size="2"/>
			<output>
				<port id="0" precision="FP16"/>
			</output>
		</layer>
		<layer id="178" name="127412788467" type="Const" version="opset1">
			<data element_type="f16" offset="5978" shape="" size="2"/>
			<output>
				<port id="0" precision="FP16"/>
			</output>
		</layer>
		<layer id="179" name="161116158542" type="Const" version="opset1">
			<data element_type="f16" offset="1878" shape="1,512,1,1" size="1024"/>
			<output>
				<port id="0" precision="FP16">
					<dim>1</dim>
					<dim>512</dim>
					<dim>1</dim>
					<dim>1</dim>
				</port>
			</output>
		</layer>
		<layer id="180" name="161216168605" type="Const" version="opset1">
			<data element_type="f16" offset="5980" shape="1,512,1,1" size="1024"/>
			<output>
				<port id="0" precision="FP16">
					<dim>1</dim>
					<dim>512</dim>
					<dim>1</dim>
					<dim>1</dim>
				</port>
			</output>
		</layer>
		<layer id="181" name="161316178770" type="Const" version="opset1">
			<data element_type="f16" offset="1878" shape="1,512,1,1" size="1024"/>
			<output>
				<port id="0" precision="FP16">
					<dim>1</dim>
					<dim>512</dim>
					<dim>1</dim>
					<dim>1</dim>
				</port>
			</output>
		</layer>
		<layer id="182" name="161416188584" type="Const" version="opset1">
			<data element_type="f16" offset="5980" shape="1,512,1,1" size="1024"/>
			<output>
				<port id="0" precision="FP16">
					<dim>1</dim>
					<dim>512</dim>
					<dim>1</dim>
					<dim>1</dim>
				</port>
			</output>
		</layer>
		<layer id="183" name="147114758443" type="Const" version="opset1">
			<data element_type="f16" offset="0" shape="" size="2"/>
			<output>
				<port id="0" precision="FP16"/>
			</output>
		</layer>
		<layer id="184" name="147214769040" type="Const" version="opset1">
			<data element_type="f16" offset="7004" shape="" size="2"/>
			<output>
				<port id="0" precision="FP16"/>
			</output>
		</layer>
		<layer id="185" name="147314779262" type="Const" version="opset1">
			<data element_type="f16" offset="0" shape="" size="2"/>
			<output>
				<port id="0" precision="FP16"/>
			</output>
		</layer>
		<layer id="186" name="147414788659" type="Const" version="opset1">
			<data element_type="f16" offset="7004" shape="" size="2"/>
			<output>
				<port id="0" precision="FP16"/>
			</output>
		</layer>
		<layer id="187" name="123112358674" type="Const" version="opset1">
			<data element_type="f16" offset="1878" shape="1,512,1,1" size="1024"/>
			<output>
				<port id="0" precision="FP16">
					<dim>1</dim>
					<dim>512</dim>
					<dim>1</dim>
					<dim>1</dim>
				</port>
			</output>
		</layer>
		<layer id="188" name="123212369106" type="Const" version="opset1">
			<data element_type="f16" offset="7006" shape="1,512,1,1" size="1024"/>
			<output>
				<port id="0" precision="FP16">
					<dim>1</dim>
					<dim>512</dim>
					<dim>1</dim>
					<dim>1</dim>
				</port>
			</output>
		</layer>
		<layer id="189" name="123312379394" type="Const" version="opset1">
			<data element_type="f16" offset="1878" shape="1,512,1,1" size="1024"/>
			<output>
				<port id="0" precision="FP16">
					<dim>1</dim>
					<dim>512</dim>
					<dim>1</dim>
					<dim>1</dim>
				</port>
			</output>
		</layer>
		<layer id="190" name="123412389205" type="Const" version="opset1">
			<data element_type="f16" offset="7006" shape="1,512,1,1" size="1024"/>
			<output>
				<port id="0" precision="FP16">
					<dim>1</dim>
					<dim>512</dim>
					<dim>1</dim>
					<dim>1</dim>
				</port>
			</output>
		</layer>
		<layer id="191" name="139113959184" type="Const" version="opset1">
			<data element_type="f16" offset="0" shape="" size="2"/>
			<output>
				<port id="0" precision="FP16"/>
			</output>
		</layer>
		<layer id="192" name="139213968986" type="Const" version="opset1">
			<data element_type="f16" offset="8030" shape="" size="2"/>
			<output>
				<port id="0" precision="FP16"/>
			</output>
		</layer>
		<layer id="193" name="139313979235" type="Const" version="opset1">
			<data element_type="f16" offset="0" shape="" size="2"/>
			<output>
				<port id="0" precision="FP16"/>
			</output>
		</layer>
		<layer id="194" name="139413989112" type="Const" version="opset1">
			<data element_type="f16" offset="8030" shape="" size="2"/>
			<output>
				<port id="0" precision="FP16"/>
			</output>
		</layer>
		<layer id="195" name="111111159058" type="Const" version="opset1">
			<data element_type="f16" offset="8032" shape="1,256,1,1" size="512"/>
			<output>
				<port id="0" precision="FP16">
					<dim>1</dim>
					<dim>256</dim>
					<dim>1</dim>
					<dim>1</dim>
				</port>
			</output>
		</layer>
		<layer id="196" name="111211169151" type="Const" version="opset1">
			<data element_type="f16" offset="8544" shape="1,256,1,1" size="512"/>
			<output>
				<port id="0" precision="FP16">
					<dim>1</dim>
					<dim>256</dim>
					<dim>1</dim>
					<dim>1</dim>
				</port>
			</output>
		</layer>
		<layer id="197" name="111311179319" type="Const" version="opset1">
			<data element_type="f16" offset="8032" shape="1,256,1,1" size="512"/>
			<output>
				<port id="0" precision="FP16">
					<dim>1</dim>
					<dim>256</dim>
					<dim>1</dim>
					<dim>1</dim>
				</port>
			</output>
		</layer>
		<layer id="198" name="111411188857" type="Const" version="opset1">
			<data element_type="f16" offset="8544" shape="1,256,1,1" size="512"/>
			<output>
				<port id="0" precision="FP16">
					<dim>1</dim>
					<dim>256</dim>
					<dim>1</dim>
					<dim>1</dim>
				</port>
			</output>
		</layer>
		<layer id="199" name="167116758251" type="Const" version="opset1">
			<data element_type="f16" offset="0" shape="" size="2"/>
			<output>
				<port id="0" precision="FP16"/>
			</output>
		</layer>
		<layer id="200" name="167216769580" type="Const" version="opset1">
			<data element_type="f16" offset="9056" shape="" size="2"/>
			<output>
				<port id="0" precision="FP16"/>
			</output>
		</layer>
		<layer id="201" name="167316778323" type="Const" version="opset1">
			<data element_type="f16" offset="0" shape="" size="2"/>
			<output>
				<port id="0" precision="FP16"/>
			</output>
		</layer>
		<layer id="202" name="167416789037" type="Const" version="opset1">
			<data element_type="f16" offset="9056" shape="" size="2"/>
			<output>
				<port id="0" precision="FP16"/>
			</output>
		</layer>
		<layer id="203" name="155115559283" type="Const" version="opset1">
			<data element_type="f16" offset="8032" shape="1,256,1,1" size="512"/>
			<output>
				<port id="0" precision="FP16">
					<dim>1</dim>
					<dim>256</dim>
					<dim>1</dim>
					<dim>1</dim>
				</port>
			</output>
		</layer>
		<layer id="204" name="155215568728" type="Const" version="opset1">
			<data element_type="f16" offset="9058" shape="1,256,1,1" size="512"/>
			<output>
				<port id="0" precision="FP16">
					<dim>1</dim>
					<dim>256</dim>
					<dim>1</dim>
					<dim>1</dim>
				</port>
			</output>
		</layer>
		<layer id="205" name="155315579643" type="Const" version="opset1">
			<data element_type="f16" offset="8032" shape="1,256,1,1" size="512"/>
			<output>
				<port id="0" precision="FP16">
					<dim>1</dim>
					<dim>256</dim>
					<dim>1</dim>
					<dim>1</dim>
				</port>
			</output>
		</layer>
		<layer id="206" name="155415588743" type="Const" version="opset1">
			<data element_type="f16" offset="9058" shape="1,256,1,1" size="512"/>
			<output>
				<port id="0" precision="FP16">
					<dim>1</dim>
					<dim>256</dim>
					<dim>1</dim>
					<dim>1</dim>
				</port>
			</output>
		</layer>
		<layer id="207" name="129112959547" type="Const" version="opset1">
			<data element_type="f16" offset="0" shape="" size="2"/>
			<output>
				<port id="0" precision="FP16"/>
			</output>
		</layer>
		<layer id="208" name="129212968380" type="Const" version="opset1">
			<data element_type="f16" offset="9570" shape="" size="2"/>
			<output>
				<port id="0" precision="FP16"/>
			</output>
		</layer>
		<layer id="209" name="129312979124" type="Const" version="opset1">
			<data element_type="f16" offset="0" shape="" size="2"/>
			<output>
				<port id="0" precision="FP16"/>
			</output>
		</layer>
		<layer id="210" name="129412988929" type="Const" version="opset1">
			<data element_type="f16" offset="9570" shape="" size="2"/>
			<output>
				<port id="0" precision="FP16"/>
			</output>
		</layer>
		<layer id="211" name="101110158233" type="Const" version="opset1">
			<data element_type="f16" offset="70" shape="1,128,1,1" size="256"/>
			<output>
				<port id="0" precision="FP16">
					<dim>1</dim>
					<dim>128</dim>
					<dim>1</dim>
					<dim>1</dim>
				</port>
			</output>
		</layer>
		<layer id="212" name="101210168716" type="Const" version="opset1">
			<data element_type="f16" offset="9572" shape="1,128,1,1" size="256"/>
			<output>
				<port id="0" precision="FP16">
					<dim>1</dim>
					<dim>128</dim>
					<dim>1</dim>
					<dim>1</dim>
				</port>
			</output>
		</layer>
		<layer id="213" name="101310178353" type="Const" version="opset1">
			<data element_type="f16" offset="70" shape="1,128,1,1" size="256"/>
			<output>
				<port id="0" precision="FP16">
					<dim>1</dim>
					<dim>128</dim>
					<dim>1</dim>
					<dim>1</dim>
				</port>
			</output>
		</layer>
		<layer id="214" name="101410189571" type="Const" version="opset1">
			<data element_type="f16" offset="9572" shape="1,128,1,1" size="256"/>
			<output>
				<port id="0" precision="FP16">
					<dim>1</dim>
					<dim>128</dim>
					<dim>1</dim>
					<dim>1</dim>
				</port>
			</output>
		</layer>
		<layer id="215" name="201120158431" type="Const" version="opset1">
			<data element_type="f16" offset="0" shape="" size="2"/>
			<output>
				<port id="0" precision="FP16"/>
			</output>
		</layer>
		<layer id="216" name="201220169211" type="Const" version="opset1">
			<data element_type="f16" offset="9828" shape="" size="2"/>
			<output>
				<port id="0" precision="FP16"/>
			</output>
		</layer>
		<layer id="217" name="201320179160" type="Const" version="opset1">
			<data element_type="f16" offset="0" shape="" size="2"/>
			<output>
				<port id="0" precision="FP16"/>
			</output>
		</layer>
		<layer id="218" name="201420189598" type="Const" version="opset1">
			<data element_type="f16" offset="9828" shape="" size="2"/>
			<output>
				<port id="0" precision="FP16"/>
			</output>
		</layer>
		<layer id="219" name="135113559532" type="Const" version="opset1">
			<data element_type="f16" offset="70" shape="1,128,1,1" size="256"/>
			<output>
				<port id="0" precision="FP16">
					<dim>1</dim>
					<dim>128</dim>
					<dim>1</dim>
					<dim>1</dim>
				</port>
			</output>
		</layer>
		<layer id="220" name="135213568647" type="Const" version="opset1">
			<data element_type="f16" offset="9830" shape="1,128,1,1" size="256"/>
			<output>
				<port id="0" precision="FP16">
					<dim>1</dim>
					<dim>128</dim>
					<dim>1</dim>
					<dim>1</dim>
				</port>
			</output>
		</layer>
		<layer id="221" name="135313579232" type="Const" version="opset1">
			<data element_type="f16" offset="70" shape="1,128,1,1" size="256"/>
			<output>
				<port id="0" precision="FP16">
					<dim>1</dim>
					<dim>128</dim>
					<dim>1</dim>
					<dim>1</dim>
				</port>
			</output>
		</layer>
		<layer id="222" name="135413588956" type="Const" version="opset1">
			<data element_type="f16" offset="9830" shape="1,128,1,1" size="256"/>
			<output>
				<port id="0" precision="FP16">
					<dim>1</dim>
					<dim>128</dim>
					<dim>1</dim>
					<dim>1</dim>
				</port>
			</output>
		</layer>
		<layer id="223" name="137113758836" type="Const" version="opset1">
			<data element_type="f16" offset="0" shape="" size="2"/>
			<output>
				<port id="0" precision="FP16"/>
			</output>
		</layer>
		<layer id="224" name="137213768863" type="Const" version="opset1">
			<data element_type="f16" offset="10086" shape="" size="2"/>
			<output>
				<port id="0" precision="FP16"/>
			</output>
		</layer>
		<layer id="225" name="137313778536" type="Const" version="opset1">
			<data element_type="f16" offset="0" shape="" size="2"/>
			<output>
				<port id="0" precision="FP16"/>
			</output>
		</layer>
		<layer id="226" name="137413789349" type="Const" version="opset1">
			<data element_type="f16" offset="10086" shape="" size="2"/>
			<output>
				<port id="0" precision="FP16"/>
			</output>
		</layer>
		<layer id="227" name="159115959448" type="Const" version="opset1">
			<data element_type="f16" offset="10088" shape="1,64,1,1" size="128"/>
			<output>
				<port id="0" precision="FP16">
					<dim>1</dim>
					<dim>64</dim>
					<dim>1</dim>
					<dim>1</dim>
				</port>
			</output>
		</layer>
		<layer id="228" name="159215968341" type="Const" version="opset1">
			<data element_type="f16" offset="10216" shape="1,64,1,1" size="128"/>
			<output>
				<port id="0" precision="FP16">
					<dim>1</dim>
					<dim>64</dim>
					<dim>1</dim>
					<dim>1</dim>
				</port>
			</output>
		</layer>
		<layer id="229" name="159315979484" type="Const" version="opset1">
			<data element_type="f16" offset="10088" shape="1,64,1,1" size="128"/>
			<output>
				<port id="0" precision="FP16">
					<dim>1</dim>
					<dim>64</dim>
					<dim>1</dim>
					<dim>1</dim>
				</port>
			</output>
		</layer>
		<layer id="230" name="159415988230" type="Const" version="opset1">
			<data element_type="f16" offset="10216" shape="1,64,1,1" size="128"/>
			<output>
				<port id="0" precision="FP16">
					<dim>1</dim>
					<dim>64</dim>
					<dim>1</dim>
					<dim>1</dim>
				</port>
			</output>
		</layer>
		<layer id="231" name="199119959649" type="Const" version="opset1">
			<data element_type="f16" offset="0" shape="" size="2"/>
			<output>
				<port id="0" precision="FP16"/>
			</output>
		</layer>
		<layer id="232" name="199219969574" type="Const" version="opset1">
			<data element_type="f16" offset="10344" shape="" size="2"/>
			<output>
				<port id="0" precision="FP16"/>
			</output>
		</layer>
		<layer id="233" name="199319979397" type="Const" version="opset1">
			<data element_type="f16" offset="0" shape="" size="2"/>
			<output>
				<port id="0" precision="FP16"/>
			</output>
		</layer>
		<layer id="234" name="199419988470" type="Const" version="opset1">
			<data element_type="f16" offset="10344" shape="" size="2"/>
			<output>
				<port id="0" precision="FP16"/>
			</output>
		</layer>
		<layer id="235" name="183118358971" type="Const" version="opset1">
			<data element_type="f16" offset="10346" shape="1,32,1,1" size="64"/>
			<output>
				<port id="0" precision="FP16">
					<dim>1</dim>
					<dim>32</dim>
					<dim>1</dim>
					<dim>1</dim>
				</port>
			</output>
		</layer>
		<layer id="236" name="183218368749" type="Const" version="opset1">
			<data element_type="f16" offset="10410" shape="1,32,1,1" size="64"/>
			<output>
				<port id="0" precision="FP16">
					<dim>1</dim>
					<dim>32</dim>
					<dim>1</dim>
					<dim>1</dim>
				</port>
			</output>
		</layer>
		<layer id="237" name="183318378518" type="Const" version="opset1">
			<data element_type="f16" offset="10346" shape="1,32,1,1" size="64"/>
			<output>
				<port id="0" precision="FP16">
					<dim>1</dim>
					<dim>32</dim>
					<dim>1</dim>
					<dim>1</dim>
				</port>
			</output>
		</layer>
		<layer id="238" name="183418388272" type="Const" version="opset1">
			<data element_type="f16" offset="10410" shape="1,32,1,1" size="64"/>
			<output>
				<port id="0" precision="FP16">
					<dim>1</dim>
					<dim>32</dim>
					<dim>1</dim>
					<dim>1</dim>
				</port>
			</output>
		</layer>
		<layer id="239" name="191119158701" type="Const" version="opset1">
			<data element_type="f16" offset="10474" shape="" size="2"/>
			<output>
				<port id="0" precision="FP16"/>
			</output>
		</layer>
		<layer id="240" name="191219168275" type="Const" version="opset1">
			<data element_type="f16" offset="10476" shape="" size="2"/>
			<output>
				<port id="0" precision="FP16"/>
			</output>
		</layer>
		<layer id="241" name="191319178719" type="Const" version="opset1">
			<data element_type="f16" offset="10474" shape="" size="2"/>
			<output>
				<port id="0" precision="FP16"/>
			</output>
		</layer>
		<layer id="242" name="191419189166" type="Const" version="opset1">
			<data element_type="f16" offset="10476" shape="" size="2"/>
			<output>
				<port id="0" precision="FP16"/>
			</output>
		</layer>
		<layer id="243" name="data" type="Parameter" version="opset1">
			<data element_type="f16" shape="1,3,256,456"/>
			<output>
				<port id="0" names="data" precision="FP16">
					<dim>1</dim>
					<dim>3</dim>
					<dim>256</dim>
					<dim>456</dim>
				</port>
			</output>
		</layer>
		<layer id="244" name="data_mul_8637146032969550" type="Const" version="opset1">
			<data element_type="f16" offset="10478" shape="1,1,1,1" size="2"/>
			<output>
				<port id="0" precision="FP16">
					<dim>1</dim>
					<dim>1</dim>
					<dim>1</dim>
					<dim>1</dim>
				</port>
			</output>
		</layer>
		<layer id="245" name="data/scale/Fused_Mul_" type="Multiply" version="opset1">
			<data auto_broadcast="numpy"/>
			<input>
				<port id="0">
					<dim>1</dim>
					<dim>3</dim>
					<dim>256</dim>
					<dim>456</dim>
				</port>
				<port id="1">
					<dim>1</dim>
					<dim>1</dim>
					<dim>1</dim>
					<dim>1</dim>
				</port>
			</input>
			<output>
				<port id="2" precision="FP16">
					<dim>1</dim>
					<dim>3</dim>
					<dim>256</dim>
					<dim>456</dim>
				</port>
			</output>
		</layer>
		<layer id="246" name="data_add_8639144832988704" type="Const" version="opset1">
			<data element_type="f16" offset="10480" shape="1,3,1,1" size="6"/>
			<output>
				<port id="0" precision="FP16">
					<dim>1</dim>
					<dim>3</dim>
					<dim>1</dim>
					<dim>1</dim>
				</port>
			</output>
		</layer>
		<layer id="247" name="data/mean/Fused_Add_" type="Add" version="opset1">
			<data auto_broadcast="numpy"/>
			<input>
				<port id="0">
					<dim>1</dim>
					<dim>3</dim>
					<dim>256</dim>
					<dim>456</dim>
				</port>
				<port id="1">
					<dim>1</dim>
					<dim>3</dim>
					<dim>1</dim>
					<dim>1</dim>
				</port>
			</input>
			<output>
				<port id="2" precision="FP16">
					<dim>1</dim>
					<dim>3</dim>
					<dim>256</dim>
					<dim>456</dim>
				</port>
			</output>
		</layer>
		<layer id="248" name="conv1/fq_input_0" type="FakeQuantize" version="opset1">
			<data auto_broadcast="numpy" levels="256"/>
			<input>
				<port id="0">
					<dim>1</dim>
					<dim>3</dim>
					<dim>256</dim>
					<dim>456</dim>
				</port>
				<port id="1"/>
				<port id="2"/>
				<port id="3"/>
				<port id="4"/>
			</input>
			<output>
				<port id="5" precision="FP16">
					<dim>1</dim>
					<dim>3</dim>
					<dim>256</dim>
					<dim>456</dim>
				</port>
			</output>
		</layer>
		<layer id="249" name="conv1/bn/mean/Fused_Mul__copy3004132/quantized61078455" type="Const" version="opset1">
			<data element_type="i8" offset="10486" shape="32,3,3,3" size="864"/>
			<output>
				<port id="0" precision="I8">
					<dim>32</dim>
					<dim>3</dim>
					<dim>3</dim>
					<dim>3</dim>
				</port>
			</output>
		</layer>
		<layer id="250" name="conv1/bn/mean/Fused_Mul__copy3004132/quantized/to_f16" type="Convert" version="opset1">
			<data destination_type="f16"/>
			<input>
				<port id="0">
					<dim>32</dim>
					<dim>3</dim>
					<dim>3</dim>
					<dim>3</dim>
				</port>
			</input>
			<output>
				<port id="1" precision="FP16">
					<dim>32</dim>
					<dim>3</dim>
					<dim>3</dim>
					<dim>3</dim>
				</port>
			</output>
		</layer>
		<layer id="251" name="conv1/fq_weights_1/zero_point61209115" type="Const" version="opset1">
			<data element_type="f16" offset="11350" shape="32,1,1,1" size="64"/>
			<output>
				<port id="0" precision="FP16">
					<dim>32</dim>
					<dim>1</dim>
					<dim>1</dim>
					<dim>1</dim>
				</port>
			</output>
		</layer>
		<layer id="252" name="conv1/fq_weights_1/minus_zp" type="Subtract" version="opset1">
			<data auto_broadcast="numpy"/>
			<input>
				<port id="0">
					<dim>32</dim>
					<dim>3</dim>
					<dim>3</dim>
					<dim>3</dim>
				</port>
				<port id="1">
					<dim>32</dim>
					<dim>1</dim>
					<dim>1</dim>
					<dim>1</dim>
				</port>
			</input>
			<output>
				<port id="2" precision="FP16">
					<dim>32</dim>
					<dim>3</dim>
					<dim>3</dim>
					<dim>3</dim>
				</port>
			</output>
		</layer>
		<layer id="253" name="conv1/fq_weights_1/scale61159313" type="Const" version="opset1">
			<data element_type="f16" offset="11414" shape="32,1,1,1" size="64"/>
			<output>
				<port id="0" precision="FP16">
					<dim>32</dim>
					<dim>1</dim>
					<dim>1</dim>
					<dim>1</dim>
				</port>
			</output>
		</layer>
		<layer id="254" name="conv1/fq_weights_1/mulpiply_by_scale" type="Multiply" version="opset1">
			<data auto_broadcast="numpy"/>
			<input>
				<port id="0">
					<dim>32</dim>
					<dim>3</dim>
					<dim>3</dim>
					<dim>3</dim>
				</port>
				<port id="1">
					<dim>32</dim>
					<dim>1</dim>
					<dim>1</dim>
					<dim>1</dim>
				</port>
			</input>
			<output>
				<port id="2" precision="FP16">
					<dim>32</dim>
					<dim>3</dim>
					<dim>3</dim>
					<dim>3</dim>
				</port>
			</output>
		</layer>
		<layer id="255" name="conv1" type="Convolution" version="opset1">
			<data auto_pad="explicit" dilations="1,1" pads_begin="1,1" pads_end="1,1" strides="2,2"/>
			<input>
				<port id="0">
					<dim>1</dim>
					<dim>3</dim>
					<dim>256</dim>
					<dim>456</dim>
				</port>
				<port id="1">
					<dim>32</dim>
					<dim>3</dim>
					<dim>3</dim>
					<dim>3</dim>
				</port>
			</input>
			<output>
				<port id="2" precision="FP16">
					<dim>1</dim>
					<dim>32</dim>
					<dim>128</dim>
					<dim>228</dim>
				</port>
			</output>
		</layer>
		<layer id="256" name="data_add_864286473028503" type="Const" version="opset1">
			<data element_type="f16" offset="11478" shape="1,32,1,1" size="64"/>
			<output>
				<port id="0" precision="FP16">
					<dim>1</dim>
					<dim>32</dim>
					<dim>1</dim>
					<dim>1</dim>
				</port>
			</output>
		</layer>
		<layer id="257" name="conv1/bn/variance/Fused_Add_" type="Add" version="opset1">
			<data auto_broadcast="numpy"/>
			<input>
				<port id="0">
					<dim>1</dim>
					<dim>32</dim>
					<dim>128</dim>
					<dim>228</dim>
				</port>
				<port id="1">
					<dim>1</dim>
					<dim>32</dim>
					<dim>1</dim>
					<dim>1</dim>
				</port>
			</input>
			<output>
				<port id="2" names="conv1" precision="FP16">
					<dim>1</dim>
					<dim>32</dim>
					<dim>128</dim>
					<dim>228</dim>
				</port>
			</output>
		</layer>
		<layer id="258" name="relu1" type="ReLU" version="opset1">
			<input>
				<port id="0">
					<dim>1</dim>
					<dim>32</dim>
					<dim>128</dim>
					<dim>228</dim>
				</port>
			</input>
			<output>
				<port id="1" names="conv1" precision="FP16">
					<dim>1</dim>
					<dim>32</dim>
					<dim>128</dim>
					<dim>228</dim>
				</port>
			</output>
		</layer>
		<layer id="259" name="conv2_1/dw/fq_input_0" type="FakeQuantize" version="opset1">
			<data auto_broadcast="numpy" levels="256"/>
			<input>
				<port id="0">
					<dim>1</dim>
					<dim>32</dim>
					<dim>128</dim>
					<dim>228</dim>
				</port>
				<port id="1">
					<dim>1</dim>
					<dim>32</dim>
					<dim>1</dim>
					<dim>1</dim>
				</port>
				<port id="2">
					<dim>1</dim>
					<dim>32</dim>
					<dim>1</dim>
					<dim>1</dim>
				</port>
				<port id="3">
					<dim>1</dim>
					<dim>32</dim>
					<dim>1</dim>
					<dim>1</dim>
				</port>
				<port id="4">
					<dim>1</dim>
					<dim>32</dim>
					<dim>1</dim>
					<dim>1</dim>
				</port>
			</input>
			<output>
				<port id="5" precision="FP16">
					<dim>1</dim>
					<dim>32</dim>
					<dim>128</dim>
					<dim>228</dim>
				</port>
			</output>
		</layer>
		<layer id="260" name="7108/value71109565" type="Const" version="opset1">
			<data element_type="i64" offset="11542" shape="5" size="40"/>
			<output>
				<port id="0" precision="I64">
					<dim>5</dim>
				</port>
			</output>
		</layer>
		<layer id="261" name="conv2_1/dw/bn/mean/Fused_Mul__copy3054134/quantized54838911" type="Const" version="opset1">
			<data element_type="i8" offset="11582" shape="32,1,3,3" size="288"/>
			<output>
				<port id="0" precision="I8">
					<dim>32</dim>
					<dim>1</dim>
					<dim>3</dim>
					<dim>3</dim>
				</port>
			</output>
		</layer>
		<layer id="262" name="conv2_1/dw/bn/mean/Fused_Mul__copy3054134/quantized/to_f16" type="Convert" version="opset1">
			<data destination_type="f16"/>
			<input>
				<port id="0">
					<dim>32</dim>
					<dim>1</dim>
					<dim>3</dim>
					<dim>3</dim>
				</port>
			</input>
			<output>
				<port id="1" precision="FP16">
					<dim>32</dim>
					<dim>1</dim>
					<dim>3</dim>
					<dim>3</dim>
				</port>
			</output>
		</layer>
		<layer id="263" name="conv2_1/dw/fq_weights_1/zero_point54968689" type="Const" version="opset1">
			<data element_type="f16" offset="11870" shape="32,1,1,1" size="64"/>
			<output>
				<port id="0" precision="FP16">
					<dim>32</dim>
					<dim>1</dim>
					<dim>1</dim>
					<dim>1</dim>
				</port>
			</output>
		</layer>
		<layer id="264" name="conv2_1/dw/fq_weights_1/minus_zp" type="Subtract" version="opset1">
			<data auto_broadcast="numpy"/>
			<input>
				<port id="0">
					<dim>32</dim>
					<dim>1</dim>
					<dim>3</dim>
					<dim>3</dim>
				</port>
				<port id="1">
					<dim>32</dim>
					<dim>1</dim>
					<dim>1</dim>
					<dim>1</dim>
				</port>
			</input>
			<output>
				<port id="2" precision="FP16">
					<dim>32</dim>
					<dim>1</dim>
					<dim>3</dim>
					<dim>3</dim>
				</port>
			</output>
		</layer>
		<layer id="265" name="conv2_1/dw/fq_weights_1/scale54918827" type="Const" version="opset1">
			<data element_type="f16" offset="11934" shape="32,1,1,1" size="64"/>
			<output>
				<port id="0" precision="FP16">
					<dim>32</dim>
					<dim>1</dim>
					<dim>1</dim>
					<dim>1</dim>
				</port>
			</output>
		</layer>
		<layer id="266" name="conv2_1/dw/fq_weights_1/mulpiply_by_scale" type="Multiply" version="opset1">
			<data auto_broadcast="numpy"/>
			<input>
				<port id="0">
					<dim>32</dim>
					<dim>1</dim>
					<dim>3</dim>
					<dim>3</dim>
				</port>
				<port id="1">
					<dim>32</dim>
					<dim>1</dim>
					<dim>1</dim>
					<dim>1</dim>
				</port>
			</input>
			<output>
				<port id="2" precision="FP16">
					<dim>32</dim>
					<dim>1</dim>
					<dim>3</dim>
					<dim>3</dim>
				</port>
			</output>
		</layer>
		<layer id="267" name="7108" type="Reshape" version="opset1">
			<data special_zero="true"/>
			<input>
				<port id="0">
					<dim>32</dim>
					<dim>1</dim>
					<dim>3</dim>
					<dim>3</dim>
				</port>
				<port id="1">
					<dim>5</dim>
				</port>
			</input>
			<output>
				<port id="2" precision="FP16">
					<dim>32</dim>
					<dim>1</dim>
					<dim>1</dim>
					<dim>3</dim>
					<dim>3</dim>
				</port>
			</output>
		</layer>
		<layer id="268" name="conv2_1/dw" type="GroupConvolution" version="opset1">
			<data auto_pad="explicit" dilations="1,1" pads_begin="1,1" pads_end="1,1" strides="1,1"/>
			<input>
				<port id="0">
					<dim>1</dim>
					<dim>32</dim>
					<dim>128</dim>
					<dim>228</dim>
				</port>
				<port id="1">
					<dim>32</dim>
					<dim>1</dim>
					<dim>1</dim>
					<dim>3</dim>
					<dim>3</dim>
				</port>
			</input>
			<output>
				<port id="2" precision="FP16">
					<dim>1</dim>
					<dim>32</dim>
					<dim>128</dim>
					<dim>228</dim>
				</port>
			</output>
		</layer>
		<layer id="269" name="data_add_865086553078809" type="Const" version="opset1">
			<data element_type="f16" offset="11998" shape="1,32,1,1" size="64"/>
			<output>
				<port id="0" precision="FP16">
					<dim>1</dim>
					<dim>32</dim>
					<dim>1</dim>
					<dim>1</dim>
				</port>
			</output>
		</layer>
		<layer id="270" name="conv2_1/dw/bn/variance/Fused_Add_" type="Add" version="opset1">
			<data auto_broadcast="numpy"/>
			<input>
				<port id="0">
					<dim>1</dim>
					<dim>32</dim>
					<dim>128</dim>
					<dim>228</dim>
				</port>
				<port id="1">
					<dim>1</dim>
					<dim>32</dim>
					<dim>1</dim>
					<dim>1</dim>
				</port>
			</input>
			<output>
				<port id="2" names="conv2_1/dw" precision="FP16">
					<dim>1</dim>
					<dim>32</dim>
					<dim>128</dim>
					<dim>228</dim>
				</port>
			</output>
		</layer>
		<layer id="271" name="relu2_1/dw" type="ReLU" version="opset1">
			<input>
				<port id="0">
					<dim>1</dim>
					<dim>32</dim>
					<dim>128</dim>
					<dim>228</dim>
				</port>
			</input>
			<output>
				<port id="1" names="conv2_1/dw" precision="FP16">
					<dim>1</dim>
					<dim>32</dim>
					<dim>128</dim>
					<dim>228</dim>
				</port>
			</output>
		</layer>
		<layer id="272" name="conv2_1/sep/fq_input_0" type="FakeQuantize" version="opset1">
			<data auto_broadcast="numpy" levels="256"/>
			<input>
				<port id="0">
					<dim>1</dim>
					<dim>32</dim>
					<dim>128</dim>
					<dim>228</dim>
				</port>
				<port id="1"/>
				<port id="2"/>
				<port id="3"/>
				<port id="4"/>
			</input>
			<output>
				<port id="5" precision="FP16">
					<dim>1</dim>
					<dim>32</dim>
					<dim>128</dim>
					<dim>228</dim>
				</port>
			</output>
		</layer>
		<layer id="273" name="conv2_1/sep/bn/mean/Fused_Mul__copy3104136/quantized51958737" type="Const" version="opset1">
			<data element_type="i8" offset="12062" shape="64,32,1,1" size="2048"/>
			<output>
				<port id="0" precision="I8">
					<dim>64</dim>
					<dim>32</dim>
					<dim>1</dim>
					<dim>1</dim>
				</port>
			</output>
		</layer>
		<layer id="274" name="conv2_1/sep/bn/mean/Fused_Mul__copy3104136/quantized/to_f16" type="Convert" version="opset1">
			<data destination_type="f16"/>
			<input>
				<port id="0">
					<dim>64</dim>
					<dim>32</dim>
					<dim>1</dim>
					<dim>1</dim>
				</port>
			</input>
			<output>
				<port id="1" precision="FP16">
					<dim>64</dim>
					<dim>32</dim>
					<dim>1</dim>
					<dim>1</dim>
				</port>
			</output>
		</layer>
		<layer id="275" name="conv2_1/sep/fq_weights_1/zero_point52089190" type="Const" version="opset1">
			<data element_type="f16" offset="14110" shape="64,1,1,1" size="128"/>
			<output>
				<port id="0" precision="FP16">
					<dim>64</dim>
					<dim>1</dim>
					<dim>1</dim>
					<dim>1</dim>
				</port>
			</output>
		</layer>
		<layer id="276" name="conv2_1/sep/fq_weights_1/minus_zp" type="Subtract" version="opset1">
			<data auto_broadcast="numpy"/>
			<input>
				<port id="0">
					<dim>64</dim>
					<dim>32</dim>
					<dim>1</dim>
					<dim>1</dim>
				</port>
				<port id="1">
					<dim>64</dim>
					<dim>1</dim>
					<dim>1</dim>
					<dim>1</dim>
				</port>
			</input>
			<output>
				<port id="2" precision="FP16">
					<dim>64</dim>
					<dim>32</dim>
					<dim>1</dim>
					<dim>1</dim>
				</port>
			</output>
		</layer>
		<layer id="277" name="conv2_1/sep/fq_weights_1/scale52039265" type="Const" version="opset1">
			<data element_type="f16" offset="14238" shape="64,1,1,1" size="128"/>
			<output>
				<port id="0" precision="FP16">
					<dim>64</dim>
					<dim>1</dim>
					<dim>1</dim>
					<dim>1</dim>
				</port>
			</output>
		</layer>
		<layer id="278" name="conv2_1/sep/fq_weights_1/mulpiply_by_scale" type="Multiply" version="opset1">
			<data auto_broadcast="numpy"/>
			<input>
				<port id="0">
					<dim>64</dim>
					<dim>32</dim>
					<dim>1</dim>
					<dim>1</dim>
				</port>
				<port id="1">
					<dim>64</dim>
					<dim>1</dim>
					<dim>1</dim>
					<dim>1</dim>
				</port>
			</input>
			<output>
				<port id="2" precision="FP16">
					<dim>64</dim>
					<dim>32</dim>
					<dim>1</dim>
					<dim>1</dim>
				</port>
			</output>
		</layer>
		<layer id="279" name="conv2_1/sep" type="Convolution" version="opset1">
			<data auto_pad="explicit" dilations="1,1" pads_begin="0,0" pads_end="0,0" strides="1,1"/>
			<input>
				<port id="0">
					<dim>1</dim>
					<dim>32</dim>
					<dim>128</dim>
					<dim>228</dim>
				</port>
				<port id="1">
					<dim>64</dim>
					<dim>32</dim>
					<dim>1</dim>
					<dim>1</dim>
				</port>
			</input>
			<output>
				<port id="2" precision="FP16">
					<dim>1</dim>
					<dim>64</dim>
					<dim>128</dim>
					<dim>228</dim>
				</port>
			</output>
		</layer>
		<layer id="280" name="data_add_865886633128587" type="Const" version="opset1">
			<data element_type="f16" offset="14366" shape="1,64,1,1" size="128"/>
			<output>
				<port id="0" precision="FP16">
					<dim>1</dim>
					<dim>64</dim>
					<dim>1</dim>
					<dim>1</dim>
				</port>
			</output>
		</layer>
		<layer id="281" name="conv2_1/sep/bn/variance/Fused_Add_" type="Add" version="opset1">
			<data auto_broadcast="numpy"/>
			<input>
				<port id="0">
					<dim>1</dim>
					<dim>64</dim>
					<dim>128</dim>
					<dim>228</dim>
				</port>
				<port id="1">
					<dim>1</dim>
					<dim>64</dim>
					<dim>1</dim>
					<dim>1</dim>
				</port>
			</input>
			<output>
				<port id="2" names="conv2_1/sep" precision="FP16">
					<dim>1</dim>
					<dim>64</dim>
					<dim>128</dim>
					<dim>228</dim>
				</port>
			</output>
		</layer>
		<layer id="282" name="relu2_1/sep" type="ReLU" version="opset1">
			<input>
				<port id="0">
					<dim>1</dim>
					<dim>64</dim>
					<dim>128</dim>
					<dim>228</dim>
				</port>
			</input>
			<output>
				<port id="1" names="conv2_1/sep" precision="FP16">
					<dim>1</dim>
					<dim>64</dim>
					<dim>128</dim>
					<dim>228</dim>
				</port>
			</output>
		</layer>
		<layer id="283" name="conv2_2/dw/fq_input_0" type="FakeQuantize" version="opset1">
			<data auto_broadcast="numpy" levels="256"/>
			<input>
				<port id="0">
					<dim>1</dim>
					<dim>64</dim>
					<dim>128</dim>
					<dim>228</dim>
				</port>
				<port id="1">
					<dim>1</dim>
					<dim>64</dim>
					<dim>1</dim>
					<dim>1</dim>
				</port>
				<port id="2">
					<dim>1</dim>
					<dim>64</dim>
					<dim>1</dim>
					<dim>1</dim>
				</port>
				<port id="3">
					<dim>1</dim>
					<dim>64</dim>
					<dim>1</dim>
					<dim>1</dim>
				</port>
				<port id="4">
					<dim>1</dim>
					<dim>64</dim>
					<dim>1</dim>
					<dim>1</dim>
				</port>
			</input>
			<output>
				<port id="5" precision="FP16">
					<dim>1</dim>
					<dim>64</dim>
					<dim>128</dim>
					<dim>228</dim>
				</port>
			</output>
		</layer>
		<layer id="284" name="7104/value71068239" type="Const" version="opset1">
			<data element_type="i64" offset="14494" shape="5" size="40"/>
			<output>
				<port id="0" precision="I64">
					<dim>5</dim>
				</port>
			</output>
		</layer>
		<layer id="285" name="conv2_2/dw/bn/mean/Fused_Mul__copy3154138/quantized57718926" type="Const" version="opset1">
			<data element_type="i8" offset="14534" shape="64,1,3,3" size="576"/>
			<output>
				<port id="0" precision="I8">
					<dim>64</dim>
					<dim>1</dim>
					<dim>3</dim>
					<dim>3</dim>
				</port>
			</output>
		</layer>
		<layer id="286" name="conv2_2/dw/bn/mean/Fused_Mul__copy3154138/quantized/to_f16" type="Convert" version="opset1">
			<data destination_type="f16"/>
			<input>
				<port id="0">
					<dim>64</dim>
					<dim>1</dim>
					<dim>3</dim>
					<dim>3</dim>
				</port>
			</input>
			<output>
				<port id="1" precision="FP16">
					<dim>64</dim>
					<dim>1</dim>
					<dim>3</dim>
					<dim>3</dim>
				</port>
			</output>
		</layer>
		<layer id="287" name="conv2_2/dw/fq_weights_1/zero_point57848290" type="Const" version="opset1">
			<data element_type="f16" offset="15110" shape="64,1,1,1" size="128"/>
			<output>
				<port id="0" precision="FP16">
					<dim>64</dim>
					<dim>1</dim>
					<dim>1</dim>
					<dim>1</dim>
				</port>
			</output>
		</layer>
		<layer id="288" name="conv2_2/dw/fq_weights_1/minus_zp" type="Subtract" version="opset1">
			<data auto_broadcast="numpy"/>
			<input>
				<port id="0">
					<dim>64</dim>
					<dim>1</dim>
					<dim>3</dim>
					<dim>3</dim>
				</port>
				<port id="1">
					<dim>64</dim>
					<dim>1</dim>
					<dim>1</dim>
					<dim>1</dim>
				</port>
			</input>
			<output>
				<port id="2" precision="FP16">
					<dim>64</dim>
					<dim>1</dim>
					<dim>3</dim>
					<dim>3</dim>
				</port>
			</output>
		</layer>
		<layer id="289" name="conv2_2/dw/fq_weights_1/scale57798206" type="Const" version="opset1">
			<data element_type="f16" offset="15238" shape="64,1,1,1" size="128"/>
			<output>
				<port id="0" precision="FP16">
					<dim>64</dim>
					<dim>1</dim>
					<dim>1</dim>
					<dim>1</dim>
				</port>
			</output>
		</layer>
		<layer id="290" name="conv2_2/dw/fq_weights_1/mulpiply_by_scale" type="Multiply" version="opset1">
			<data auto_broadcast="numpy"/>
			<input>
				<port id="0">
					<dim>64</dim>
					<dim>1</dim>
					<dim>3</dim>
					<dim>3</dim>
				</port>
				<port id="1">
					<dim>64</dim>
					<dim>1</dim>
					<dim>1</dim>
					<dim>1</dim>
				</port>
			</input>
			<output>
				<port id="2" precision="FP16">
					<dim>64</dim>
					<dim>1</dim>
					<dim>3</dim>
					<dim>3</dim>
				</port>
			</output>
		</layer>
		<layer id="291" name="7104" type="Reshape" version="opset1">
			<data special_zero="true"/>
			<input>
				<port id="0">
					<dim>64</dim>
					<dim>1</dim>
					<dim>3</dim>
					<dim>3</dim>
				</port>
				<port id="1">
					<dim>5</dim>
				</port>
			</input>
			<output>
				<port id="2" precision="FP16">
					<dim>64</dim>
					<dim>1</dim>
					<dim>1</dim>
					<dim>3</dim>
					<dim>3</dim>
				</port>
			</output>
		</layer>
		<layer id="292" name="conv2_2/dw" type="GroupConvolution" version="opset1">
			<data auto_pad="explicit" dilations="1,1" pads_begin="1,1" pads_end="1,1" strides="2,2"/>
			<input>
				<port id="0">
					<dim>1</dim>
					<dim>64</dim>
					<dim>128</dim>
					<dim>228</dim>
				</port>
				<port id="1">
					<dim>64</dim>
					<dim>1</dim>
					<dim>1</dim>
					<dim>3</dim>
					<dim>3</dim>
				</port>
			</input>
			<output>
				<port id="2" precision="FP16">
					<dim>1</dim>
					<dim>64</dim>
					<dim>64</dim>
					<dim>114</dim>
				</port>
			</output>
		</layer>
		<layer id="293" name="data_add_866686713178560" type="Const" version="opset1">
			<data element_type="f16" offset="15366" shape="1,64,1,1" size="128"/>
			<output>
				<port id="0" precision="FP16">
					<dim>1</dim>
					<dim>64</dim>
					<dim>1</dim>
					<dim>1</dim>
				</port>
			</output>
		</layer>
		<layer id="294" name="conv2_2/dw/bn/variance/Fused_Add_" type="Add" version="opset1">
			<data auto_broadcast="numpy"/>
			<input>
				<port id="0">
					<dim>1</dim>
					<dim>64</dim>
					<dim>64</dim>
					<dim>114</dim>
				</port>
				<port id="1">
					<dim>1</dim>
					<dim>64</dim>
					<dim>1</dim>
					<dim>1</dim>
				</port>
			</input>
			<output>
				<port id="2" names="conv2_2/dw" precision="FP16">
					<dim>1</dim>
					<dim>64</dim>
					<dim>64</dim>
					<dim>114</dim>
				</port>
			</output>
		</layer>
		<layer id="295" name="relu2_2/dw" type="ReLU" version="opset1">
			<input>
				<port id="0">
					<dim>1</dim>
					<dim>64</dim>
					<dim>64</dim>
					<dim>114</dim>
				</port>
			</input>
			<output>
				<port id="1" names="conv2_2/dw" precision="FP16">
					<dim>1</dim>
					<dim>64</dim>
					<dim>64</dim>
					<dim>114</dim>
				</port>
			</output>
		</layer>
		<layer id="296" name="conv2_2/sep/fq_input_0" type="FakeQuantize" version="opset1">
			<data auto_broadcast="numpy" levels="256"/>
			<input>
				<port id="0">
					<dim>1</dim>
					<dim>64</dim>
					<dim>64</dim>
					<dim>114</dim>
				</port>
				<port id="1"/>
				<port id="2"/>
				<port id="3"/>
				<port id="4"/>
			</input>
			<output>
				<port id="5" precision="FP16">
					<dim>1</dim>
					<dim>64</dim>
					<dim>64</dim>
					<dim>114</dim>
				</port>
			</output>
		</layer>
		<layer id="297" name="conv2_2/sep/bn/mean/Fused_Mul__copy3204140/quantized48599595" type="Const" version="opset1">
			<data element_type="i8" offset="15494" shape="128,64,1,1" size="8192"/>
			<output>
				<port id="0" precision="I8">
					<dim>128</dim>
					<dim>64</dim>
					<dim>1</dim>
					<dim>1</dim>
				</port>
			</output>
		</layer>
		<layer id="298" name="conv2_2/sep/bn/mean/Fused_Mul__copy3204140/quantized/to_f16" type="Convert" version="opset1">
			<data destination_type="f16"/>
			<input>
				<port id="0">
					<dim>128</dim>
					<dim>64</dim>
					<dim>1</dim>
					<dim>1</dim>
				</port>
			</input>
			<output>
				<port id="1" precision="FP16">
					<dim>128</dim>
					<dim>64</dim>
					<dim>1</dim>
					<dim>1</dim>
				</port>
			</output>
		</layer>
		<layer id="299" name="conv2_2/sep/fq_weights_1/zero_point48728215" type="Const" version="opset1">
			<data element_type="f16" offset="23686" shape="128,1,1,1" size="256"/>
			<output>
				<port id="0" precision="FP16">
					<dim>128</dim>
					<dim>1</dim>
					<dim>1</dim>
					<dim>1</dim>
				</port>
			</output>
		</layer>
		<layer id="300" name="conv2_2/sep/fq_weights_1/minus_zp" type="Subtract" version="opset1">
			<data auto_broadcast="numpy"/>
			<input>
				<port id="0">
					<dim>128</dim>
					<dim>64</dim>
					<dim>1</dim>
					<dim>1</dim>
				</port>
				<port id="1">
					<dim>128</dim>
					<dim>1</dim>
					<dim>1</dim>
					<dim>1</dim>
				</port>
			</input>
			<output>
				<port id="2" precision="FP16">
					<dim>128</dim>
					<dim>64</dim>
					<dim>1</dim>
					<dim>1</dim>
				</port>
			</output>
		</layer>
		<layer id="301" name="conv2_2/sep/fq_weights_1/scale48678977" type="Const" version="opset1">
			<data element_type="f16" offset="23942" shape="128,1,1,1" size="256"/>
			<output>
				<port id="0" precision="FP16">
					<dim>128</dim>
					<dim>1</dim>
					<dim>1</dim>
					<dim>1</dim>
				</port>
			</output>
		</layer>
		<layer id="302" name="conv2_2/sep/fq_weights_1/mulpiply_by_scale" type="Multiply" version="opset1">
			<data auto_broadcast="numpy"/>
			<input>
				<port id="0">
					<dim>128</dim>
					<dim>64</dim>
					<dim>1</dim>
					<dim>1</dim>
				</port>
				<port id="1">
					<dim>128</dim>
					<dim>1</dim>
					<dim>1</dim>
					<dim>1</dim>
				</port>
			</input>
			<output>
				<port id="2" precision="FP16">
					<dim>128</dim>
					<dim>64</dim>
					<dim>1</dim>
					<dim>1</dim>
				</port>
			</output>
		</layer>
		<layer id="303" name="conv2_2/sep" type="Convolution" version="opset1">
			<data auto_pad="explicit" dilations="1,1" pads_begin="0,0" pads_end="0,0" strides="1,1"/>
			<input>
				<port id="0">
					<dim>1</dim>
					<dim>64</dim>
					<dim>64</dim>
					<dim>114</dim>
				</port>
				<port id="1">
					<dim>128</dim>
					<dim>64</dim>
					<dim>1</dim>
					<dim>1</dim>
				</port>
			</input>
			<output>
				<port id="2" precision="FP16">
					<dim>1</dim>
					<dim>128</dim>
					<dim>64</dim>
					<dim>114</dim>
				</port>
			</output>
		</layer>
		<layer id="304" name="data_add_867486793228305" type="Const" version="opset1">
			<data element_type="f16" offset="24198" shape="1,128,1,1" size="256"/>
			<output>
				<port id="0" precision="FP16">
					<dim>1</dim>
					<dim>128</dim>
					<dim>1</dim>
					<dim>1</dim>
				</port>
			</output>
		</layer>
		<layer id="305" name="conv2_2/sep/bn/variance/Fused_Add_" type="Add" version="opset1">
			<data auto_broadcast="numpy"/>
			<input>
				<port id="0">
					<dim>1</dim>
					<dim>128</dim>
					<dim>64</dim>
					<dim>114</dim>
				</port>
				<port id="1">
					<dim>1</dim>
					<dim>128</dim>
					<dim>1</dim>
					<dim>1</dim>
				</port>
			</input>
			<output>
				<port id="2" names="conv2_2/sep" precision="FP16">
					<dim>1</dim>
					<dim>128</dim>
					<dim>64</dim>
					<dim>114</dim>
				</port>
			</output>
		</layer>
		<layer id="306" name="relu2_2/sep" type="ReLU" version="opset1">
			<input>
				<port id="0">
					<dim>1</dim>
					<dim>128</dim>
					<dim>64</dim>
					<dim>114</dim>
				</port>
			</input>
			<output>
				<port id="1" names="conv2_2/sep" precision="FP16">
					<dim>1</dim>
					<dim>128</dim>
					<dim>64</dim>
					<dim>114</dim>
				</port>
			</output>
		</layer>
		<layer id="307" name="conv3_1/dw/fq_input_0" type="FakeQuantize" version="opset1">
			<data auto_broadcast="numpy" levels="256"/>
			<input>
				<port id="0">
					<dim>1</dim>
					<dim>128</dim>
					<dim>64</dim>
					<dim>114</dim>
				</port>
				<port id="1">
					<dim>1</dim>
					<dim>128</dim>
					<dim>1</dim>
					<dim>1</dim>
				</port>
				<port id="2">
					<dim>1</dim>
					<dim>128</dim>
					<dim>1</dim>
					<dim>1</dim>
				</port>
				<port id="3">
					<dim>1</dim>
					<dim>128</dim>
					<dim>1</dim>
					<dim>1</dim>
				</port>
				<port id="4">
					<dim>1</dim>
					<dim>128</dim>
					<dim>1</dim>
					<dim>1</dim>
				</port>
			</input>
			<output>
				<port id="5" precision="FP16">
					<dim>1</dim>
					<dim>128</dim>
					<dim>64</dim>
					<dim>114</dim>
				</port>
			</output>
		</layer>
		<layer id="308" name="7136/value71389418" type="Const" version="opset1">
			<data element_type="i64" offset="24454" shape="5" size="40"/>
			<output>
				<port id="0" precision="I64">
					<dim>5</dim>
				</port>
			</output>
		</layer>
		<layer id="309" name="conv3_1/dw/bn/mean/Fused_Mul__copy3254142/quantized52679619" type="Const" version="opset1">
			<data element_type="i8" offset="24494" shape="128,1,3,3" size="1152"/>
			<output>
				<port id="0" precision="I8">
					<dim>128</dim>
					<dim>1</dim>
					<dim>3</dim>
					<dim>3</dim>
				</port>
			</output>
		</layer>
		<layer id="310" name="conv3_1/dw/bn/mean/Fused_Mul__copy3254142/quantized/to_f16" type="Convert" version="opset1">
			<data destination_type="f16"/>
			<input>
				<port id="0">
					<dim>128</dim>
					<dim>1</dim>
					<dim>3</dim>
					<dim>3</dim>
				</port>
			</input>
			<output>
				<port id="1" precision="FP16">
					<dim>128</dim>
					<dim>1</dim>
					<dim>3</dim>
					<dim>3</dim>
				</port>
			</output>
		</layer>
		<layer id="311" name="conv3_1/dw/fq_weights_1/zero_point52808398" type="Const" version="opset1">
			<data element_type="f16" offset="25646" shape="128,1,1,1" size="256"/>
			<output>
				<port id="0" precision="FP16">
					<dim>128</dim>
					<dim>1</dim>
					<dim>1</dim>
					<dim>1</dim>
				</port>
			</output>
		</layer>
		<layer id="312" name="conv3_1/dw/fq_weights_1/minus_zp" type="Subtract" version="opset1">
			<data auto_broadcast="numpy"/>
			<input>
				<port id="0">
					<dim>128</dim>
					<dim>1</dim>
					<dim>3</dim>
					<dim>3</dim>
				</port>
				<port id="1">
					<dim>128</dim>
					<dim>1</dim>
					<dim>1</dim>
					<dim>1</dim>
				</port>
			</input>
			<output>
				<port id="2" precision="FP16">
					<dim>128</dim>
					<dim>1</dim>
					<dim>3</dim>
					<dim>3</dim>
				</port>
			</output>
		</layer>
		<layer id="313" name="conv3_1/dw/fq_weights_1/scale52758695" type="Const" version="opset1">
			<data element_type="f16" offset="25902" shape="128,1,1,1" size="256"/>
			<output>
				<port id="0" precision="FP16">
					<dim>128</dim>
					<dim>1</dim>
					<dim>1</dim>
					<dim>1</dim>
				</port>
			</output>
		</layer>
		<layer id="314" name="conv3_1/dw/fq_weights_1/mulpiply_by_scale" type="Multiply" version="opset1">
			<data auto_broadcast="numpy"/>
			<input>
				<port id="0">
					<dim>128</dim>
					<dim>1</dim>
					<dim>3</dim>
					<dim>3</dim>
				</port>
				<port id="1">
					<dim>128</dim>
					<dim>1</dim>
					<dim>1</dim>
					<dim>1</dim>
				</port>
			</input>
			<output>
				<port id="2" precision="FP16">
					<dim>128</dim>
					<dim>1</dim>
					<dim>3</dim>
					<dim>3</dim>
				</port>
			</output>
		</layer>
		<layer id="315" name="7136" type="Reshape" version="opset1">
			<data special_zero="true"/>
			<input>
				<port id="0">
					<dim>128</dim>
					<dim>1</dim>
					<dim>3</dim>
					<dim>3</dim>
				</port>
				<port id="1">
					<dim>5</dim>
				</port>
			</input>
			<output>
				<port id="2" precision="FP16">
					<dim>128</dim>
					<dim>1</dim>
					<dim>1</dim>
					<dim>3</dim>
					<dim>3</dim>
				</port>
			</output>
		</layer>
		<layer id="316" name="conv3_1/dw" type="GroupConvolution" version="opset1">
			<data auto_pad="explicit" dilations="1,1" pads_begin="1,1" pads_end="1,1" strides="1,1"/>
			<input>
				<port id="0">
					<dim>1</dim>
					<dim>128</dim>
					<dim>64</dim>
					<dim>114</dim>
				</port>
				<port id="1">
					<dim>128</dim>
					<dim>1</dim>
					<dim>1</dim>
					<dim>3</dim>
					<dim>3</dim>
				</port>
			</input>
			<output>
				<port id="2" precision="FP16">
					<dim>1</dim>
					<dim>128</dim>
					<dim>64</dim>
					<dim>114</dim>
				</port>
			</output>
		</layer>
		<layer id="317" name="data_add_868286873278437" type="Const" version="opset1">
			<data element_type="f16" offset="26158" shape="1,128,1,1" size="256"/>
			<output>
				<port id="0" precision="FP16">
					<dim>1</dim>
					<dim>128</dim>
					<dim>1</dim>
					<dim>1</dim>
				</port>
			</output>
		</layer>
		<layer id="318" name="conv3_1/dw/bn/variance/Fused_Add_" type="Add" version="opset1">
			<data auto_broadcast="numpy"/>
			<input>
				<port id="0">
					<dim>1</dim>
					<dim>128</dim>
					<dim>64</dim>
					<dim>114</dim>
				</port>
				<port id="1">
					<dim>1</dim>
					<dim>128</dim>
					<dim>1</dim>
					<dim>1</dim>
				</port>
			</input>
			<output>
				<port id="2" names="conv3_1/dw" precision="FP16">
					<dim>1</dim>
					<dim>128</dim>
					<dim>64</dim>
					<dim>114</dim>
				</port>
			</output>
		</layer>
		<layer id="319" name="relu3_1/dw" type="ReLU" version="opset1">
			<input>
				<port id="0">
					<dim>1</dim>
					<dim>128</dim>
					<dim>64</dim>
					<dim>114</dim>
				</port>
			</input>
			<output>
				<port id="1" names="conv3_1/dw" precision="FP16">
					<dim>1</dim>
					<dim>128</dim>
					<dim>64</dim>
					<dim>114</dim>
				</port>
			</output>
		</layer>
		<layer id="320" name="conv3_1/sep/fq_input_0" type="FakeQuantize" version="opset1">
			<data auto_broadcast="numpy" levels="256"/>
			<input>
				<port id="0">
					<dim>1</dim>
					<dim>128</dim>
					<dim>64</dim>
					<dim>114</dim>
				</port>
				<port id="1"/>
				<port id="2"/>
				<port id="3"/>
				<port id="4"/>
			</input>
			<output>
				<port id="5" precision="FP16">
					<dim>1</dim>
					<dim>128</dim>
					<dim>64</dim>
					<dim>114</dim>
				</port>
			</output>
		</layer>
		<layer id="321" name="conv3_1/sep/bn/mean/Fused_Mul__copy3304144/quantized54119130" type="Const" version="opset1">
			<data element_type="i8" offset="26414" shape="128,128,1,1" size="16384"/>
			<output>
				<port id="0" precision="I8">
					<dim>128</dim>
					<dim>128</dim>
					<dim>1</dim>
					<dim>1</dim>
				</port>
			</output>
		</layer>
		<layer id="322" name="conv3_1/sep/bn/mean/Fused_Mul__copy3304144/quantized/to_f16" type="Convert" version="opset1">
			<data destination_type="f16"/>
			<input>
				<port id="0">
					<dim>128</dim>
					<dim>128</dim>
					<dim>1</dim>
					<dim>1</dim>
				</port>
			</input>
			<output>
				<port id="1" precision="FP16">
					<dim>128</dim>
					<dim>128</dim>
					<dim>1</dim>
					<dim>1</dim>
				</port>
			</output>
		</layer>
		<layer id="323" name="conv3_1/sep/fq_weights_1/zero_point54248908" type="Const" version="opset1">
			<data element_type="f16" offset="42798" shape="128,1,1,1" size="256"/>
			<output>
				<port id="0" precision="FP16">
					<dim>128</dim>
					<dim>1</dim>
					<dim>1</dim>
					<dim>1</dim>
				</port>
			</output>
		</layer>
		<layer id="324" name="conv3_1/sep/fq_weights_1/minus_zp" type="Subtract" version="opset1">
			<data auto_broadcast="numpy"/>
			<input>
				<port id="0">
					<dim>128</dim>
					<dim>128</dim>
					<dim>1</dim>
					<dim>1</dim>
				</port>
				<port id="1">
					<dim>128</dim>
					<dim>1</dim>
					<dim>1</dim>
					<dim>1</dim>
				</port>
			</input>
			<output>
				<port id="2" precision="FP16">
					<dim>128</dim>
					<dim>128</dim>
					<dim>1</dim>
					<dim>1</dim>
				</port>
			</output>
		</layer>
		<layer id="325" name="conv3_1/sep/fq_weights_1/scale54199049" type="Const" version="opset1">
			<data element_type="f16" offset="43054" shape="128,1,1,1" size="256"/>
			<output>
				<port id="0" precision="FP16">
					<dim>128</dim>
					<dim>1</dim>
					<dim>1</dim>
					<dim>1</dim>
				</port>
			</output>
		</layer>
		<layer id="326" name="conv3_1/sep/fq_weights_1/mulpiply_by_scale" type="Multiply" version="opset1">
			<data auto_broadcast="numpy"/>
			<input>
				<port id="0">
					<dim>128</dim>
					<dim>128</dim>
					<dim>1</dim>
					<dim>1</dim>
				</port>
				<port id="1">
					<dim>128</dim>
					<dim>1</dim>
					<dim>1</dim>
					<dim>1</dim>
				</port>
			</input>
			<output>
				<port id="2" precision="FP16">
					<dim>128</dim>
					<dim>128</dim>
					<dim>1</dim>
					<dim>1</dim>
				</port>
			</output>
		</layer>
		<layer id="327" name="conv3_1/sep" type="Convolution" version="opset1">
			<data auto_pad="explicit" dilations="1,1" pads_begin="0,0" pads_end="0,0" strides="1,1"/>
			<input>
				<port id="0">
					<dim>1</dim>
					<dim>128</dim>
					<dim>64</dim>
					<dim>114</dim>
				</port>
				<port id="1">
					<dim>128</dim>
					<dim>128</dim>
					<dim>1</dim>
					<dim>1</dim>
				</port>
			</input>
			<output>
				<port id="2" precision="FP16">
					<dim>1</dim>
					<dim>128</dim>
					<dim>64</dim>
					<dim>114</dim>
				</port>
			</output>
		</layer>
		<layer id="328" name="data_add_869086953328293" type="Const" version="opset1">
			<data element_type="f16" offset="43310" shape="1,128,1,1" size="256"/>
			<output>
				<port id="0" precision="FP16">
					<dim>1</dim>
					<dim>128</dim>
					<dim>1</dim>
					<dim>1</dim>
				</port>
			</output>
		</layer>
		<layer id="329" name="conv3_1/sep/bn/variance/Fused_Add_" type="Add" version="opset1">
			<data auto_broadcast="numpy"/>
			<input>
				<port id="0">
					<dim>1</dim>
					<dim>128</dim>
					<dim>64</dim>
					<dim>114</dim>
				</port>
				<port id="1">
					<dim>1</dim>
					<dim>128</dim>
					<dim>1</dim>
					<dim>1</dim>
				</port>
			</input>
			<output>
				<port id="2" names="conv3_1/sep" precision="FP16">
					<dim>1</dim>
					<dim>128</dim>
					<dim>64</dim>
					<dim>114</dim>
				</port>
			</output>
		</layer>
		<layer id="330" name="relu3_1/sep" type="ReLU" version="opset1">
			<input>
				<port id="0">
					<dim>1</dim>
					<dim>128</dim>
					<dim>64</dim>
					<dim>114</dim>
				</port>
			</input>
			<output>
				<port id="1" names="conv3_1/sep" precision="FP16">
					<dim>1</dim>
					<dim>128</dim>
					<dim>64</dim>
					<dim>114</dim>
				</port>
			</output>
		</layer>
		<layer id="331" name="conv3_2/dw/fq_input_0" type="FakeQuantize" version="opset1">
			<data auto_broadcast="numpy" levels="256"/>
			<input>
				<port id="0">
					<dim>1</dim>
					<dim>128</dim>
					<dim>64</dim>
					<dim>114</dim>
				</port>
				<port id="1">
					<dim>1</dim>
					<dim>128</dim>
					<dim>1</dim>
					<dim>1</dim>
				</port>
				<port id="2">
					<dim>1</dim>
					<dim>128</dim>
					<dim>1</dim>
					<dim>1</dim>
				</port>
				<port id="3">
					<dim>1</dim>
					<dim>128</dim>
					<dim>1</dim>
					<dim>1</dim>
				</port>
				<port id="4">
					<dim>1</dim>
					<dim>128</dim>
					<dim>1</dim>
					<dim>1</dim>
				</port>
			</input>
			<output>
				<port id="5" precision="FP16">
					<dim>1</dim>
					<dim>128</dim>
					<dim>64</dim>
					<dim>114</dim>
				</port>
			</output>
		</layer>
		<layer id="332" name="7096/value70989541" type="Const" version="opset1">
			<data element_type="i64" offset="24454" shape="5" size="40"/>
			<output>
				<port id="0" precision="I64">
					<dim>5</dim>
				</port>
			</output>
		</layer>
		<layer id="333" name="conv3_2/dw/bn/mean/Fused_Mul__copy3354146/quantized53639244" type="Const" version="opset1">
			<data element_type="i8" offset="43566" shape="128,1,3,3" size="1152"/>
			<output>
				<port id="0" precision="I8">
					<dim>128</dim>
					<dim>1</dim>
					<dim>3</dim>
					<dim>3</dim>
				</port>
			</output>
		</layer>
		<layer id="334" name="conv3_2/dw/bn/mean/Fused_Mul__copy3354146/quantized/to_f16" type="Convert" version="opset1">
			<data destination_type="f16"/>
			<input>
				<port id="0">
					<dim>128</dim>
					<dim>1</dim>
					<dim>3</dim>
					<dim>3</dim>
				</port>
			</input>
			<output>
				<port id="1" precision="FP16">
					<dim>128</dim>
					<dim>1</dim>
					<dim>3</dim>
					<dim>3</dim>
				</port>
			</output>
		</layer>
		<layer id="335" name="conv3_2/dw/fq_weights_1/zero_point53768833" type="Const" version="opset1">
			<data element_type="f16" offset="44718" shape="128,1,1,1" size="256"/>
			<output>
				<port id="0" precision="FP16">
					<dim>128</dim>
					<dim>1</dim>
					<dim>1</dim>
					<dim>1</dim>
				</port>
			</output>
		</layer>
		<layer id="336" name="conv3_2/dw/fq_weights_1/minus_zp" type="Subtract" version="opset1">
			<data auto_broadcast="numpy"/>
			<input>
				<port id="0">
					<dim>128</dim>
					<dim>1</dim>
					<dim>3</dim>
					<dim>3</dim>
				</port>
				<port id="1">
					<dim>128</dim>
					<dim>1</dim>
					<dim>1</dim>
					<dim>1</dim>
				</port>
			</input>
			<output>
				<port id="2" precision="FP16">
					<dim>128</dim>
					<dim>1</dim>
					<dim>3</dim>
					<dim>3</dim>
				</port>
			</output>
		</layer>
		<layer id="337" name="conv3_2/dw/fq_weights_1/scale53718887" type="Const" version="opset1">
			<data element_type="f16" offset="44974" shape="128,1,1,1" size="256"/>
			<output>
				<port id="0" precision="FP16">
					<dim>128</dim>
					<dim>1</dim>
					<dim>1</dim>
					<dim>1</dim>
				</port>
			</output>
		</layer>
		<layer id="338" name="conv3_2/dw/fq_weights_1/mulpiply_by_scale" type="Multiply" version="opset1">
			<data auto_broadcast="numpy"/>
			<input>
				<port id="0">
					<dim>128</dim>
					<dim>1</dim>
					<dim>3</dim>
					<dim>3</dim>
				</port>
				<port id="1">
					<dim>128</dim>
					<dim>1</dim>
					<dim>1</dim>
					<dim>1</dim>
				</port>
			</input>
			<output>
				<port id="2" precision="FP16">
					<dim>128</dim>
					<dim>1</dim>
					<dim>3</dim>
					<dim>3</dim>
				</port>
			</output>
		</layer>
		<layer id="339" name="7096" type="Reshape" version="opset1">
			<data special_zero="true"/>
			<input>
				<port id="0">
					<dim>128</dim>
					<dim>1</dim>
					<dim>3</dim>
					<dim>3</dim>
				</port>
				<port id="1">
					<dim>5</dim>
				</port>
			</input>
			<output>
				<port id="2" precision="FP16">
					<dim>128</dim>
					<dim>1</dim>
					<dim>1</dim>
					<dim>3</dim>
					<dim>3</dim>
				</port>
			</output>
		</layer>
		<layer id="340" name="conv3_2/dw" type="GroupConvolution" version="opset1">
			<data auto_pad="explicit" dilations="1,1" pads_begin="1,1" pads_end="1,1" strides="2,2"/>
			<input>
				<port id="0">
					<dim>1</dim>
					<dim>128</dim>
					<dim>64</dim>
					<dim>114</dim>
				</port>
				<port id="1">
					<dim>128</dim>
					<dim>1</dim>
					<dim>1</dim>
					<dim>3</dim>
					<dim>3</dim>
				</port>
			</input>
			<output>
				<port id="2" precision="FP16">
					<dim>1</dim>
					<dim>128</dim>
					<dim>32</dim>
					<dim>57</dim>
				</port>
			</output>
		</layer>
		<layer id="341" name="data_add_869887033378170" type="Const" version="opset1">
			<data element_type="f16" offset="45230" shape="1,128,1,1" size="256"/>
			<output>
				<port id="0" precision="FP16">
					<dim>1</dim>
					<dim>128</dim>
					<dim>1</dim>
					<dim>1</dim>
				</port>
			</output>
		</layer>
		<layer id="342" name="conv3_2/dw/bn/variance/Fused_Add_" type="Add" version="opset1">
			<data auto_broadcast="numpy"/>
			<input>
				<port id="0">
					<dim>1</dim>
					<dim>128</dim>
					<dim>32</dim>
					<dim>57</dim>
				</port>
				<port id="1">
					<dim>1</dim>
					<dim>128</dim>
					<dim>1</dim>
					<dim>1</dim>
				</port>
			</input>
			<output>
				<port id="2" names="conv3_2/dw" precision="FP16">
					<dim>1</dim>
					<dim>128</dim>
					<dim>32</dim>
					<dim>57</dim>
				</port>
			</output>
		</layer>
		<layer id="343" name="relu3_2/dw" type="ReLU" version="opset1">
			<input>
				<port id="0">
					<dim>1</dim>
					<dim>128</dim>
					<dim>32</dim>
					<dim>57</dim>
				</port>
			</input>
			<output>
				<port id="1" names="conv3_2/dw" precision="FP16">
					<dim>1</dim>
					<dim>128</dim>
					<dim>32</dim>
					<dim>57</dim>
				</port>
			</output>
		</layer>
		<layer id="344" name="conv3_2/sep/fq_input_0" type="FakeQuantize" version="opset1">
			<data auto_broadcast="numpy" levels="256"/>
			<input>
				<port id="0">
					<dim>1</dim>
					<dim>128</dim>
					<dim>32</dim>
					<dim>57</dim>
				</port>
				<port id="1"/>
				<port id="2"/>
				<port id="3"/>
				<port id="4"/>
			</input>
			<output>
				<port id="5" precision="FP16">
					<dim>1</dim>
					<dim>128</dim>
					<dim>32</dim>
					<dim>57</dim>
				</port>
			</output>
		</layer>
		<layer id="345" name="conv3_2/sep/bn/mean/Fused_Mul__copy3404148/quantized50758653" type="Const" version="opset1">
			<data element_type="i8" offset="45486" shape="256,128,1,1" size="32768"/>
			<output>
				<port id="0" precision="I8">
					<dim>256</dim>
					<dim>128</dim>
					<dim>1</dim>
					<dim>1</dim>
				</port>
			</output>
		</layer>
		<layer id="346" name="conv3_2/sep/bn/mean/Fused_Mul__copy3404148/quantized/to_f16" type="Convert" version="opset1">
			<data destination_type="f16"/>
			<input>
				<port id="0">
					<dim>256</dim>
					<dim>128</dim>
					<dim>1</dim>
					<dim>1</dim>
				</port>
			</input>
			<output>
				<port id="1" precision="FP16">
					<dim>256</dim>
					<dim>128</dim>
					<dim>1</dim>
					<dim>1</dim>
				</port>
			</output>
		</layer>
		<layer id="347" name="conv3_2/sep/fq_weights_1/zero_point50889118" type="Const" version="opset1">
			<data element_type="f16" offset="78254" shape="256,1,1,1" size="512"/>
			<output>
				<port id="0" precision="FP16">
					<dim>256</dim>
					<dim>1</dim>
					<dim>1</dim>
					<dim>1</dim>
				</port>
			</output>
		</layer>
		<layer id="348" name="conv3_2/sep/fq_weights_1/minus_zp" type="Subtract" version="opset1">
			<data auto_broadcast="numpy"/>
			<input>
				<port id="0">
					<dim>256</dim>
					<dim>128</dim>
					<dim>1</dim>
					<dim>1</dim>
				</port>
				<port id="1">
					<dim>256</dim>
					<dim>1</dim>
					<dim>1</dim>
					<dim>1</dim>
				</port>
			</input>
			<output>
				<port id="2" precision="FP16">
					<dim>256</dim>
					<dim>128</dim>
					<dim>1</dim>
					<dim>1</dim>
				</port>
			</output>
		</layer>
		<layer id="349" name="conv3_2/sep/fq_weights_1/scale50839070" type="Const" version="opset1">
			<data element_type="f16" offset="78766" shape="256,1,1,1" size="512"/>
			<output>
				<port id="0" precision="FP16">
					<dim>256</dim>
					<dim>1</dim>
					<dim>1</dim>
					<dim>1</dim>
				</port>
			</output>
		</layer>
		<layer id="350" name="conv3_2/sep/fq_weights_1/mulpiply_by_scale" type="Multiply" version="opset1">
			<data auto_broadcast="numpy"/>
			<input>
				<port id="0">
					<dim>256</dim>
					<dim>128</dim>
					<dim>1</dim>
					<dim>1</dim>
				</port>
				<port id="1">
					<dim>256</dim>
					<dim>1</dim>
					<dim>1</dim>
					<dim>1</dim>
				</port>
			</input>
			<output>
				<port id="2" precision="FP16">
					<dim>256</dim>
					<dim>128</dim>
					<dim>1</dim>
					<dim>1</dim>
				</port>
			</output>
		</layer>
		<layer id="351" name="conv3_2/sep" type="Convolution" version="opset1">
			<data auto_pad="explicit" dilations="1,1" pads_begin="0,0" pads_end="0,0" strides="1,1"/>
			<input>
				<port id="0">
					<dim>1</dim>
					<dim>128</dim>
					<dim>32</dim>
					<dim>57</dim>
				</port>
				<port id="1">
					<dim>256</dim>
					<dim>128</dim>
					<dim>1</dim>
					<dim>1</dim>
				</port>
			</input>
			<output>
				<port id="2" precision="FP16">
					<dim>1</dim>
					<dim>256</dim>
					<dim>32</dim>
					<dim>57</dim>
				</port>
			</output>
		</layer>
		<layer id="352" name="data_add_870687113428629" type="Const" version="opset1">
			<data element_type="f16" offset="79278" shape="1,256,1,1" size="512"/>
			<output>
				<port id="0" precision="FP16">
					<dim>1</dim>
					<dim>256</dim>
					<dim>1</dim>
					<dim>1</dim>
				</port>
			</output>
		</layer>
		<layer id="353" name="conv3_2/sep/bn/variance/Fused_Add_" type="Add" version="opset1">
			<data auto_broadcast="numpy"/>
			<input>
				<port id="0">
					<dim>1</dim>
					<dim>256</dim>
					<dim>32</dim>
					<dim>57</dim>
				</port>
				<port id="1">
					<dim>1</dim>
					<dim>256</dim>
					<dim>1</dim>
					<dim>1</dim>
				</port>
			</input>
			<output>
				<port id="2" names="conv3_2/sep" precision="FP16">
					<dim>1</dim>
					<dim>256</dim>
					<dim>32</dim>
					<dim>57</dim>
				</port>
			</output>
		</layer>
		<layer id="354" name="relu3_2/sep" type="ReLU" version="opset1">
			<input>
				<port id="0">
					<dim>1</dim>
					<dim>256</dim>
					<dim>32</dim>
					<dim>57</dim>
				</port>
			</input>
			<output>
				<port id="1" names="conv3_2/sep" precision="FP16">
					<dim>1</dim>
					<dim>256</dim>
					<dim>32</dim>
					<dim>57</dim>
				</port>
			</output>
		</layer>
		<layer id="355" name="conv4_1/dw/fq_input_0" type="FakeQuantize" version="opset1">
			<data auto_broadcast="numpy" levels="256"/>
			<input>
				<port id="0">
					<dim>1</dim>
					<dim>256</dim>
					<dim>32</dim>
					<dim>57</dim>
				</port>
				<port id="1">
					<dim>1</dim>
					<dim>256</dim>
					<dim>1</dim>
					<dim>1</dim>
				</port>
				<port id="2">
					<dim>1</dim>
					<dim>256</dim>
					<dim>1</dim>
					<dim>1</dim>
				</port>
				<port id="3">
					<dim>1</dim>
					<dim>256</dim>
					<dim>1</dim>
					<dim>1</dim>
				</port>
				<port id="4">
					<dim>1</dim>
					<dim>256</dim>
					<dim>1</dim>
					<dim>1</dim>
				</port>
			</input>
			<output>
				<port id="5" precision="FP16">
					<dim>1</dim>
					<dim>256</dim>
					<dim>32</dim>
					<dim>57</dim>
				</port>
			</output>
		</layer>
		<layer id="356" name="7100/value71029466" type="Const" version="opset1">
			<data element_type="i64" offset="79790" shape="5" size="40"/>
			<output>
				<port id="0" precision="I64">
					<dim>5</dim>
				</port>
			</output>
		</layer>
		<layer id="357" name="conv4_1/dw/bn/mean/Fused_Mul__copy3454150/quantized59399163" type="Const" version="opset1">
			<data element_type="i8" offset="79830" shape="256,1,3,3" size="2304"/>
			<output>
				<port id="0" precision="I8">
					<dim>256</dim>
					<dim>1</dim>
					<dim>3</dim>
					<dim>3</dim>
				</port>
			</output>
		</layer>
		<layer id="358" name="conv4_1/dw/bn/mean/Fused_Mul__copy3454150/quantized/to_f16" type="Convert" version="opset1">
			<data destination_type="f16"/>
			<input>
				<port id="0">
					<dim>256</dim>
					<dim>1</dim>
					<dim>3</dim>
					<dim>3</dim>
				</port>
			</input>
			<output>
				<port id="1" precision="FP16">
					<dim>256</dim>
					<dim>1</dim>
					<dim>3</dim>
					<dim>3</dim>
				</port>
			</output>
		</layer>
		<layer id="359" name="conv4_1/dw/fq_weights_1/zero_point59529178" type="Const" version="opset1">
			<data element_type="f16" offset="82134" shape="256,1,1,1" size="512"/>
			<output>
				<port id="0" precision="FP16">
					<dim>256</dim>
					<dim>1</dim>
					<dim>1</dim>
					<dim>1</dim>
				</port>
			</output>
		</layer>
		<layer id="360" name="conv4_1/dw/fq_weights_1/minus_zp" type="Subtract" version="opset1">
			<data auto_broadcast="numpy"/>
			<input>
				<port id="0">
					<dim>256</dim>
					<dim>1</dim>
					<dim>3</dim>
					<dim>3</dim>
				</port>
				<port id="1">
					<dim>256</dim>
					<dim>1</dim>
					<dim>1</dim>
					<dim>1</dim>
				</port>
			</input>
			<output>
				<port id="2" precision="FP16">
					<dim>256</dim>
					<dim>1</dim>
					<dim>3</dim>
					<dim>3</dim>
				</port>
			</output>
		</layer>
		<layer id="361" name="conv4_1/dw/fq_weights_1/scale59478665" type="Const" version="opset1">
			<data element_type="f16" offset="82646" shape="256,1,1,1" size="512"/>
			<output>
				<port id="0" precision="FP16">
					<dim>256</dim>
					<dim>1</dim>
					<dim>1</dim>
					<dim>1</dim>
				</port>
			</output>
		</layer>
		<layer id="362" name="conv4_1/dw/fq_weights_1/mulpiply_by_scale" type="Multiply" version="opset1">
			<data auto_broadcast="numpy"/>
			<input>
				<port id="0">
					<dim>256</dim>
					<dim>1</dim>
					<dim>3</dim>
					<dim>3</dim>
				</port>
				<port id="1">
					<dim>256</dim>
					<dim>1</dim>
					<dim>1</dim>
					<dim>1</dim>
				</port>
			</input>
			<output>
				<port id="2" precision="FP16">
					<dim>256</dim>
					<dim>1</dim>
					<dim>3</dim>
					<dim>3</dim>
				</port>
			</output>
		</layer>
		<layer id="363" name="7100" type="Reshape" version="opset1">
			<data special_zero="true"/>
			<input>
				<port id="0">
					<dim>256</dim>
					<dim>1</dim>
					<dim>3</dim>
					<dim>3</dim>
				</port>
				<port id="1">
					<dim>5</dim>
				</port>
			</input>
			<output>
				<port id="2" precision="FP16">
					<dim>256</dim>
					<dim>1</dim>
					<dim>1</dim>
					<dim>3</dim>
					<dim>3</dim>
				</port>
			</output>
		</layer>
		<layer id="364" name="conv4_1/dw" type="GroupConvolution" version="opset1">
			<data auto_pad="explicit" dilations="1,1" pads_begin="1,1" pads_end="1,1" strides="1,1"/>
			<input>
				<port id="0">
					<dim>1</dim>
					<dim>256</dim>
					<dim>32</dim>
					<dim>57</dim>
				</port>
				<port id="1">
					<dim>256</dim>
					<dim>1</dim>
					<dim>1</dim>
					<dim>3</dim>
					<dim>3</dim>
				</port>
			</input>
			<output>
				<port id="2" precision="FP16">
					<dim>1</dim>
					<dim>256</dim>
					<dim>32</dim>
					<dim>57</dim>
				</port>
			</output>
		</layer>
		<layer id="365" name="data_add_871487193478338" type="Const" version="opset1">
			<data element_type="f16" offset="83158" shape="1,256,1,1" size="512"/>
			<output>
				<port id="0" precision="FP16">
					<dim>1</dim>
					<dim>256</dim>
					<dim>1</dim>
					<dim>1</dim>
				</port>
			</output>
		</layer>
		<layer id="366" name="conv4_1/dw/bn/variance/Fused_Add_" type="Add" version="opset1">
			<data auto_broadcast="numpy"/>
			<input>
				<port id="0">
					<dim>1</dim>
					<dim>256</dim>
					<dim>32</dim>
					<dim>57</dim>
				</port>
				<port id="1">
					<dim>1</dim>
					<dim>256</dim>
					<dim>1</dim>
					<dim>1</dim>
				</port>
			</input>
			<output>
				<port id="2" names="conv4_1/dw" precision="FP16">
					<dim>1</dim>
					<dim>256</dim>
					<dim>32</dim>
					<dim>57</dim>
				</port>
			</output>
		</layer>
		<layer id="367" name="relu4_1/dw" type="ReLU" version="opset1">
			<input>
				<port id="0">
					<dim>1</dim>
					<dim>256</dim>
					<dim>32</dim>
					<dim>57</dim>
				</port>
			</input>
			<output>
				<port id="1" names="conv4_1/dw" precision="FP16">
					<dim>1</dim>
					<dim>256</dim>
					<dim>32</dim>
					<dim>57</dim>
				</port>
			</output>
		</layer>
		<layer id="368" name="conv4_1/sep/fq_input_0" type="FakeQuantize" version="opset1">
			<data auto_broadcast="numpy" levels="256"/>
			<input>
				<port id="0">
					<dim>1</dim>
					<dim>256</dim>
					<dim>32</dim>
					<dim>57</dim>
				</port>
				<port id="1"/>
				<port id="2"/>
				<port id="3"/>
				<port id="4"/>
			</input>
			<output>
				<port id="5" precision="FP16">
					<dim>1</dim>
					<dim>256</dim>
					<dim>32</dim>
					<dim>57</dim>
				</port>
			</output>
		</layer>
		<layer id="369" name="conv4_1/sep/bn/mean/Fused_Mul__copy3504152/quantized59159376" type="Const" version="opset1">
			<data element_type="i8" offset="83670" shape="256,256,1,1" size="65536"/>
			<output>
				<port id="0" precision="I8">
					<dim>256</dim>
					<dim>256</dim>
					<dim>1</dim>
					<dim>1</dim>
				</port>
			</output>
		</layer>
		<layer id="370" name="conv4_1/sep/bn/mean/Fused_Mul__copy3504152/quantized/to_f16" type="Convert" version="opset1">
			<data destination_type="f16"/>
			<input>
				<port id="0">
					<dim>256</dim>
					<dim>256</dim>
					<dim>1</dim>
					<dim>1</dim>
				</port>
			</input>
			<output>
				<port id="1" precision="FP16">
					<dim>256</dim>
					<dim>256</dim>
					<dim>1</dim>
					<dim>1</dim>
				</port>
			</output>
		</layer>
		<layer id="371" name="conv4_1/sep/fq_weights_1/zero_point59288359" type="Const" version="opset1">
			<data element_type="f16" offset="149206" shape="256,1,1,1" size="512"/>
			<output>
				<port id="0" precision="FP16">
					<dim>256</dim>
					<dim>1</dim>
					<dim>1</dim>
					<dim>1</dim>
				</port>
			</output>
		</layer>
		<layer id="372" name="conv4_1/sep/fq_weights_1/minus_zp" type="Subtract" version="opset1">
			<data auto_broadcast="numpy"/>
			<input>
				<port id="0">
					<dim>256</dim>
					<dim>256</dim>
					<dim>1</dim>
					<dim>1</dim>
				</port>
				<port id="1">
					<dim>256</dim>
					<dim>1</dim>
					<dim>1</dim>
					<dim>1</dim>
				</port>
			</input>
			<output>
				<port id="2" precision="FP16">
					<dim>256</dim>
					<dim>256</dim>
					<dim>1</dim>
					<dim>1</dim>
				</port>
			</output>
		</layer>
		<layer id="373" name="conv4_1/sep/fq_weights_1/scale59239493" type="Const" version="opset1">
			<data element_type="f16" offset="149718" shape="256,1,1,1" size="512"/>
			<output>
				<port id="0" precision="FP16">
					<dim>256</dim>
					<dim>1</dim>
					<dim>1</dim>
					<dim>1</dim>
				</port>
			</output>
		</layer>
		<layer id="374" name="conv4_1/sep/fq_weights_1/mulpiply_by_scale" type="Multiply" version="opset1">
			<data auto_broadcast="numpy"/>
			<input>
				<port id="0">
					<dim>256</dim>
					<dim>256</dim>
					<dim>1</dim>
					<dim>1</dim>
				</port>
				<port id="1">
					<dim>256</dim>
					<dim>1</dim>
					<dim>1</dim>
					<dim>1</dim>
				</port>
			</input>
			<output>
				<port id="2" precision="FP16">
					<dim>256</dim>
					<dim>256</dim>
					<dim>1</dim>
					<dim>1</dim>
				</port>
			</output>
		</layer>
		<layer id="375" name="conv4_1/sep" type="Convolution" version="opset1">
			<data auto_pad="explicit" dilations="1,1" pads_begin="0,0" pads_end="0,0" strides="1,1"/>
			<input>
				<port id="0">
					<dim>1</dim>
					<dim>256</dim>
					<dim>32</dim>
					<dim>57</dim>
				</port>
				<port id="1">
					<dim>256</dim>
					<dim>256</dim>
					<dim>1</dim>
					<dim>1</dim>
				</port>
			</input>
			<output>
				<port id="2" precision="FP16">
					<dim>1</dim>
					<dim>256</dim>
					<dim>32</dim>
					<dim>57</dim>
				</port>
			</output>
		</layer>
		<layer id="376" name="data_add_872287273528203" type="Const" version="opset1">
			<data element_type="f16" offset="150230" shape="1,256,1,1" size="512"/>
			<output>
				<port id="0" precision="FP16">
					<dim>1</dim>
					<dim>256</dim>
					<dim>1</dim>
					<dim>1</dim>
				</port>
			</output>
		</layer>
		<layer id="377" name="conv4_1/sep/bn/variance/Fused_Add_" type="Add" version="opset1">
			<data auto_broadcast="numpy"/>
			<input>
				<port id="0">
					<dim>1</dim>
					<dim>256</dim>
					<dim>32</dim>
					<dim>57</dim>
				</port>
				<port id="1">
					<dim>1</dim>
					<dim>256</dim>
					<dim>1</dim>
					<dim>1</dim>
				</port>
			</input>
			<output>
				<port id="2" names="conv4_1/sep" precision="FP16">
					<dim>1</dim>
					<dim>256</dim>
					<dim>32</dim>
					<dim>57</dim>
				</port>
			</output>
		</layer>
		<layer id="378" name="relu4_1/sep" type="ReLU" version="opset1">
			<input>
				<port id="0">
					<dim>1</dim>
					<dim>256</dim>
					<dim>32</dim>
					<dim>57</dim>
				</port>
			</input>
			<output>
				<port id="1" names="conv4_1/sep" precision="FP16">
					<dim>1</dim>
					<dim>256</dim>
					<dim>32</dim>
					<dim>57</dim>
				</port>
			</output>
		</layer>
		<layer id="379" name="conv4_2/dw/fq_input_0" type="FakeQuantize" version="opset1">
			<data auto_broadcast="numpy" levels="256"/>
			<input>
				<port id="0">
					<dim>1</dim>
					<dim>256</dim>
					<dim>32</dim>
					<dim>57</dim>
				</port>
				<port id="1">
					<dim>1</dim>
					<dim>256</dim>
					<dim>1</dim>
					<dim>1</dim>
				</port>
				<port id="2">
					<dim>1</dim>
					<dim>256</dim>
					<dim>1</dim>
					<dim>1</dim>
				</port>
				<port id="3">
					<dim>1</dim>
					<dim>256</dim>
					<dim>1</dim>
					<dim>1</dim>
				</port>
				<port id="4">
					<dim>1</dim>
					<dim>256</dim>
					<dim>1</dim>
					<dim>1</dim>
				</port>
			</input>
			<output>
				<port id="5" precision="FP16">
					<dim>1</dim>
					<dim>256</dim>
					<dim>32</dim>
					<dim>57</dim>
				</port>
			</output>
		</layer>
		<layer id="380" name="7120/value71229121" type="Const" version="opset1">
			<data element_type="i64" offset="79790" shape="5" size="40"/>
			<output>
				<port id="0" precision="I64">
					<dim>5</dim>
				</port>
			</output>
		</layer>
		<layer id="381" name="conv4_2/dw/bn/mean/Fused_Mul__copy3554154/quantized56038413" type="Const" version="opset1">
			<data element_type="i8" offset="150742" shape="256,1,3,3" size="2304"/>
			<output>
				<port id="0" precision="I8">
					<dim>256</dim>
					<dim>1</dim>
					<dim>3</dim>
					<dim>3</dim>
				</port>
			</output>
		</layer>
		<layer id="382" name="conv4_2/dw/bn/mean/Fused_Mul__copy3554154/quantized/to_f16" type="Convert" version="opset1">
			<data destination_type="f16"/>
			<input>
				<port id="0">
					<dim>256</dim>
					<dim>1</dim>
					<dim>3</dim>
					<dim>3</dim>
				</port>
			</input>
			<output>
				<port id="1" precision="FP16">
					<dim>256</dim>
					<dim>1</dim>
					<dim>3</dim>
					<dim>3</dim>
				</port>
			</output>
		</layer>
		<layer id="383" name="conv4_2/dw/fq_weights_1/zero_point56168158" type="Const" version="opset1">
			<data element_type="f16" offset="153046" shape="256,1,1,1" size="512"/>
			<output>
				<port id="0" precision="FP16">
					<dim>256</dim>
					<dim>1</dim>
					<dim>1</dim>
					<dim>1</dim>
				</port>
			</output>
		</layer>
		<layer id="384" name="conv4_2/dw/fq_weights_1/minus_zp" type="Subtract" version="opset1">
			<data auto_broadcast="numpy"/>
			<input>
				<port id="0">
					<dim>256</dim>
					<dim>1</dim>
					<dim>3</dim>
					<dim>3</dim>
				</port>
				<port id="1">
					<dim>256</dim>
					<dim>1</dim>
					<dim>1</dim>
					<dim>1</dim>
				</port>
			</input>
			<output>
				<port id="2" precision="FP16">
					<dim>256</dim>
					<dim>1</dim>
					<dim>3</dim>
					<dim>3</dim>
				</port>
			</output>
		</layer>
		<layer id="385" name="conv4_2/dw/fq_weights_1/scale56118269" type="Const" version="opset1">
			<data element_type="f16" offset="153558" shape="256,1,1,1" size="512"/>
			<output>
				<port id="0" precision="FP16">
					<dim>256</dim>
					<dim>1</dim>
					<dim>1</dim>
					<dim>1</dim>
				</port>
			</output>
		</layer>
		<layer id="386" name="conv4_2/dw/fq_weights_1/mulpiply_by_scale" type="Multiply" version="opset1">
			<data auto_broadcast="numpy"/>
			<input>
				<port id="0">
					<dim>256</dim>
					<dim>1</dim>
					<dim>3</dim>
					<dim>3</dim>
				</port>
				<port id="1">
					<dim>256</dim>
					<dim>1</dim>
					<dim>1</dim>
					<dim>1</dim>
				</port>
			</input>
			<output>
				<port id="2" precision="FP16">
					<dim>256</dim>
					<dim>1</dim>
					<dim>3</dim>
					<dim>3</dim>
				</port>
			</output>
		</layer>
		<layer id="387" name="7120" type="Reshape" version="opset1">
			<data special_zero="true"/>
			<input>
				<port id="0">
					<dim>256</dim>
					<dim>1</dim>
					<dim>3</dim>
					<dim>3</dim>
				</port>
				<port id="1">
					<dim>5</dim>
				</port>
			</input>
			<output>
				<port id="2" precision="FP16">
					<dim>256</dim>
					<dim>1</dim>
					<dim>1</dim>
					<dim>3</dim>
					<dim>3</dim>
				</port>
			</output>
		</layer>
		<layer id="388" name="conv4_2/dw" type="GroupConvolution" version="opset1">
			<data auto_pad="explicit" dilations="1,1" pads_begin="1,1" pads_end="1,1" strides="1,1"/>
			<input>
				<port id="0">
					<dim>1</dim>
					<dim>256</dim>
					<dim>32</dim>
					<dim>57</dim>
				</port>
				<port id="1">
					<dim>256</dim>
					<dim>1</dim>
					<dim>1</dim>
					<dim>3</dim>
					<dim>3</dim>
				</port>
			</input>
			<output>
				<port id="2" precision="FP16">
					<dim>1</dim>
					<dim>256</dim>
					<dim>32</dim>
					<dim>57</dim>
				</port>
			</output>
		</layer>
		<layer id="389" name="data_add_873087353578941" type="Const" version="opset1">
			<data element_type="f16" offset="154070" shape="1,256,1,1" size="512"/>
			<output>
				<port id="0" precision="FP16">
					<dim>1</dim>
					<dim>256</dim>
					<dim>1</dim>
					<dim>1</dim>
				</port>
			</output>
		</layer>
		<layer id="390" name="conv4_2/dw/bn/variance/Fused_Add_" type="Add" version="opset1">
			<data auto_broadcast="numpy"/>
			<input>
				<port id="0">
					<dim>1</dim>
					<dim>256</dim>
					<dim>32</dim>
					<dim>57</dim>
				</port>
				<port id="1">
					<dim>1</dim>
					<dim>256</dim>
					<dim>1</dim>
					<dim>1</dim>
				</port>
			</input>
			<output>
				<port id="2" names="conv4_2/dw" precision="FP16">
					<dim>1</dim>
					<dim>256</dim>
					<dim>32</dim>
					<dim>57</dim>
				</port>
			</output>
		</layer>
		<layer id="391" name="relu4_2/dw" type="ReLU" version="opset1">
			<input>
				<port id="0">
					<dim>1</dim>
					<dim>256</dim>
					<dim>32</dim>
					<dim>57</dim>
				</port>
			</input>
			<output>
				<port id="1" names="conv4_2/dw" precision="FP16">
					<dim>1</dim>
					<dim>256</dim>
					<dim>32</dim>
					<dim>57</dim>
				</port>
			</output>
		</layer>
		<layer id="392" name="conv4_2/sep/fq_input_0" type="FakeQuantize" version="opset1">
			<data auto_broadcast="numpy" levels="256"/>
			<input>
				<port id="0">
					<dim>1</dim>
					<dim>256</dim>
					<dim>32</dim>
					<dim>57</dim>
				</port>
				<port id="1"/>
				<port id="2"/>
				<port id="3"/>
				<port id="4"/>
			</input>
			<output>
				<port id="5" precision="FP16">
					<dim>1</dim>
					<dim>256</dim>
					<dim>32</dim>
					<dim>57</dim>
				</port>
			</output>
		</layer>
		<layer id="393" name="conv4_2/sep/bn/mean/Fused_Mul__copy3604156/quantized50998527" type="Const" version="opset1">
			<data element_type="i8" offset="154582" shape="512,256,1,1" size="131072"/>
			<output>
				<port id="0" precision="I8">
					<dim>512</dim>
					<dim>256</dim>
					<dim>1</dim>
					<dim>1</dim>
				</port>
			</output>
		</layer>
		<layer id="394" name="conv4_2/sep/bn/mean/Fused_Mul__copy3604156/quantized/to_f16" type="Convert" version="opset1">
			<data destination_type="f16"/>
			<input>
				<port id="0">
					<dim>512</dim>
					<dim>256</dim>
					<dim>1</dim>
					<dim>1</dim>
				</port>
			</input>
			<output>
				<port id="1" precision="FP16">
					<dim>512</dim>
					<dim>256</dim>
					<dim>1</dim>
					<dim>1</dim>
				</port>
			</output>
		</layer>
		<layer id="395" name="conv4_2/sep/fq_weights_1/zero_point51128182" type="Const" version="opset1">
			<data element_type="f16" offset="285654" shape="512,1,1,1" size="1024"/>
			<output>
				<port id="0" precision="FP16">
					<dim>512</dim>
					<dim>1</dim>
					<dim>1</dim>
					<dim>1</dim>
				</port>
			</output>
		</layer>
		<layer id="396" name="conv4_2/sep/fq_weights_1/minus_zp" type="Subtract" version="opset1">
			<data auto_broadcast="numpy"/>
			<input>
				<port id="0">
					<dim>512</dim>
					<dim>256</dim>
					<dim>1</dim>
					<dim>1</dim>
				</port>
				<port id="1">
					<dim>512</dim>
					<dim>1</dim>
					<dim>1</dim>
					<dim>1</dim>
				</port>
			</input>
			<output>
				<port id="2" precision="FP16">
					<dim>512</dim>
					<dim>256</dim>
					<dim>1</dim>
					<dim>1</dim>
				</port>
			</output>
		</layer>
		<layer id="397" name="conv4_2/sep/fq_weights_1/scale51078524" type="Const" version="opset1">
			<data element_type="f16" offset="286678" shape="512,1,1,1" size="1024"/>
			<output>
				<port id="0" precision="FP16">
					<dim>512</dim>
					<dim>1</dim>
					<dim>1</dim>
					<dim>1</dim>
				</port>
			</output>
		</layer>
		<layer id="398" name="conv4_2/sep/fq_weights_1/mulpiply_by_scale" type="Multiply" version="opset1">
			<data auto_broadcast="numpy"/>
			<input>
				<port id="0">
					<dim>512</dim>
					<dim>256</dim>
					<dim>1</dim>
					<dim>1</dim>
				</port>
				<port id="1">
					<dim>512</dim>
					<dim>1</dim>
					<dim>1</dim>
					<dim>1</dim>
				</port>
			</input>
			<output>
				<port id="2" precision="FP16">
					<dim>512</dim>
					<dim>256</dim>
					<dim>1</dim>
					<dim>1</dim>
				</port>
			</output>
		</layer>
		<layer id="399" name="conv4_2/sep" type="Convolution" version="opset1">
			<data auto_pad="explicit" dilations="1,1" pads_begin="0,0" pads_end="0,0" strides="1,1"/>
			<input>
				<port id="0">
					<dim>1</dim>
					<dim>256</dim>
					<dim>32</dim>
					<dim>57</dim>
				</port>
				<port id="1">
					<dim>512</dim>
					<dim>256</dim>
					<dim>1</dim>
					<dim>1</dim>
				</port>
			</input>
			<output>
				<port id="2" precision="FP16">
					<dim>1</dim>
					<dim>512</dim>
					<dim>32</dim>
					<dim>57</dim>
				</port>
			</output>
		</layer>
		<layer id="400" name="data_add_873887433628212" type="Const" version="opset1">
			<data element_type="f16" offset="287702" shape="1,512,1,1" size="1024"/>
			<output>
				<port id="0" precision="FP16">
					<dim>1</dim>
					<dim>512</dim>
					<dim>1</dim>
					<dim>1</dim>
				</port>
			</output>
		</layer>
		<layer id="401" name="conv4_2/sep/bn/variance/Fused_Add_" type="Add" version="opset1">
			<data auto_broadcast="numpy"/>
			<input>
				<port id="0">
					<dim>1</dim>
					<dim>512</dim>
					<dim>32</dim>
					<dim>57</dim>
				</port>
				<port id="1">
					<dim>1</dim>
					<dim>512</dim>
					<dim>1</dim>
					<dim>1</dim>
				</port>
			</input>
			<output>
				<port id="2" names="conv4_2/sep" precision="FP16">
					<dim>1</dim>
					<dim>512</dim>
					<dim>32</dim>
					<dim>57</dim>
				</port>
			</output>
		</layer>
		<layer id="402" name="relu4_2/sep" type="ReLU" version="opset1">
			<input>
				<port id="0">
					<dim>1</dim>
					<dim>512</dim>
					<dim>32</dim>
					<dim>57</dim>
				</port>
			</input>
			<output>
				<port id="1" names="conv4_2/sep" precision="FP16">
					<dim>1</dim>
					<dim>512</dim>
					<dim>32</dim>
					<dim>57</dim>
				</port>
			</output>
		</layer>
		<layer id="403" name="conv5_1/dw/fq_input_0" type="FakeQuantize" version="opset1">
			<data auto_broadcast="numpy" levels="256"/>
			<input>
				<port id="0">
					<dim>1</dim>
					<dim>512</dim>
					<dim>32</dim>
					<dim>57</dim>
				</port>
				<port id="1">
					<dim>1</dim>
					<dim>512</dim>
					<dim>1</dim>
					<dim>1</dim>
				</port>
				<port id="2">
					<dim>1</dim>
					<dim>512</dim>
					<dim>1</dim>
					<dim>1</dim>
				</port>
				<port id="3">
					<dim>1</dim>
					<dim>512</dim>
					<dim>1</dim>
					<dim>1</dim>
				</port>
				<port id="4">
					<dim>1</dim>
					<dim>512</dim>
					<dim>1</dim>
					<dim>1</dim>
				</port>
			</input>
			<output>
				<port id="5" precision="FP16">
					<dim>1</dim>
					<dim>512</dim>
					<dim>32</dim>
					<dim>57</dim>
				</port>
			</output>
		</layer>
		<layer id="404" name="7124/value71269451" type="Const" version="opset1">
			<data element_type="i64" offset="288726" shape="5" size="40"/>
			<output>
				<port id="0" precision="I64">
					<dim>5</dim>
				</port>
			</output>
		</layer>
		<layer id="405" name="conv5_1/dw/bn/mean/Fused_Mul__copy3654158/quantized59638485" type="Const" version="opset1">
			<data element_type="i8" offset="288766" shape="512,1,3,3" size="4608"/>
			<output>
				<port id="0" precision="I8">
					<dim>512</dim>
					<dim>1</dim>
					<dim>3</dim>
					<dim>3</dim>
				</port>
			</output>
		</layer>
		<layer id="406" name="conv5_1/dw/bn/mean/Fused_Mul__copy3654158/quantized/to_f16" type="Convert" version="opset1">
			<data destination_type="f16"/>
			<input>
				<port id="0">
					<dim>512</dim>
					<dim>1</dim>
					<dim>3</dim>
					<dim>3</dim>
				</port>
			</input>
			<output>
				<port id="1" precision="FP16">
					<dim>512</dim>
					<dim>1</dim>
					<dim>3</dim>
					<dim>3</dim>
				</port>
			</output>
		</layer>
		<layer id="407" name="conv5_1/dw/fq_weights_1/zero_point59768344" type="Const" version="opset1">
			<data element_type="f16" offset="293374" shape="512,1,1,1" size="1024"/>
			<output>
				<port id="0" precision="FP16">
					<dim>512</dim>
					<dim>1</dim>
					<dim>1</dim>
					<dim>1</dim>
				</port>
			</output>
		</layer>
		<layer id="408" name="conv5_1/dw/fq_weights_1/minus_zp" type="Subtract" version="opset1">
			<data auto_broadcast="numpy"/>
			<input>
				<port id="0">
					<dim>512</dim>
					<dim>1</dim>
					<dim>3</dim>
					<dim>3</dim>
				</port>
				<port id="1">
					<dim>512</dim>
					<dim>1</dim>
					<dim>1</dim>
					<dim>1</dim>
				</port>
			</input>
			<output>
				<port id="2" precision="FP16">
					<dim>512</dim>
					<dim>1</dim>
					<dim>3</dim>
					<dim>3</dim>
				</port>
			</output>
		</layer>
		<layer id="409" name="conv5_1/dw/fq_weights_1/scale59718608" type="Const" version="opset1">
			<data element_type="f16" offset="294398" shape="512,1,1,1" size="1024"/>
			<output>
				<port id="0" precision="FP16">
					<dim>512</dim>
					<dim>1</dim>
					<dim>1</dim>
					<dim>1</dim>
				</port>
			</output>
		</layer>
		<layer id="410" name="conv5_1/dw/fq_weights_1/mulpiply_by_scale" type="Multiply" version="opset1">
			<data auto_broadcast="numpy"/>
			<input>
				<port id="0">
					<dim>512</dim>
					<dim>1</dim>
					<dim>3</dim>
					<dim>3</dim>
				</port>
				<port id="1">
					<dim>512</dim>
					<dim>1</dim>
					<dim>1</dim>
					<dim>1</dim>
				</port>
			</input>
			<output>
				<port id="2" precision="FP16">
					<dim>512</dim>
					<dim>1</dim>
					<dim>3</dim>
					<dim>3</dim>
				</port>
			</output>
		</layer>
		<layer id="411" name="7124" type="Reshape" version="opset1">
			<data special_zero="true"/>
			<input>
				<port id="0">
					<dim>512</dim>
					<dim>1</dim>
					<dim>3</dim>
					<dim>3</dim>
				</port>
				<port id="1">
					<dim>5</dim>
				</port>
			</input>
			<output>
				<port id="2" precision="FP16">
					<dim>512</dim>
					<dim>1</dim>
					<dim>1</dim>
					<dim>3</dim>
					<dim>3</dim>
				</port>
			</output>
		</layer>
		<layer id="412" name="conv5_1/dw" type="GroupConvolution" version="opset1">
			<data auto_pad="explicit" dilations="2,2" pads_begin="2,2" pads_end="2,2" strides="1,1"/>
			<input>
				<port id="0">
					<dim>1</dim>
					<dim>512</dim>
					<dim>32</dim>
					<dim>57</dim>
				</port>
				<port id="1">
					<dim>512</dim>
					<dim>1</dim>
					<dim>1</dim>
					<dim>3</dim>
					<dim>3</dim>
				</port>
			</input>
			<output>
				<port id="2" precision="FP16">
					<dim>1</dim>
					<dim>512</dim>
					<dim>32</dim>
					<dim>57</dim>
				</port>
			</output>
		</layer>
		<layer id="413" name="data_add_874687513679292" type="Const" version="opset1">
			<data element_type="f16" offset="295422" shape="1,512,1,1" size="1024"/>
			<output>
				<port id="0" precision="FP16">
					<dim>1</dim>
					<dim>512</dim>
					<dim>1</dim>
					<dim>1</dim>
				</port>
			</output>
		</layer>
		<layer id="414" name="conv5_1/dw/bn/variance/Fused_Add_" type="Add" version="opset1">
			<data auto_broadcast="numpy"/>
			<input>
				<port id="0">
					<dim>1</dim>
					<dim>512</dim>
					<dim>32</dim>
					<dim>57</dim>
				</port>
				<port id="1">
					<dim>1</dim>
					<dim>512</dim>
					<dim>1</dim>
					<dim>1</dim>
				</port>
			</input>
			<output>
				<port id="2" names="conv5_1/dw" precision="FP16">
					<dim>1</dim>
					<dim>512</dim>
					<dim>32</dim>
					<dim>57</dim>
				</port>
			</output>
		</layer>
		<layer id="415" name="relu5_1/dw" type="ReLU" version="opset1">
			<input>
				<port id="0">
					<dim>1</dim>
					<dim>512</dim>
					<dim>32</dim>
					<dim>57</dim>
				</port>
			</input>
			<output>
				<port id="1" names="conv5_1/dw" precision="FP16">
					<dim>1</dim>
					<dim>512</dim>
					<dim>32</dim>
					<dim>57</dim>
				</port>
			</output>
		</layer>
		<layer id="416" name="conv5_1/sep/fq_input_0" type="FakeQuantize" version="opset1">
			<data auto_broadcast="numpy" levels="256"/>
			<input>
				<port id="0">
					<dim>1</dim>
					<dim>512</dim>
					<dim>32</dim>
					<dim>57</dim>
				</port>
				<port id="1"/>
				<port id="2"/>
				<port id="3"/>
				<port id="4"/>
			</input>
			<output>
				<port id="5" precision="FP16">
					<dim>1</dim>
					<dim>512</dim>
					<dim>32</dim>
					<dim>57</dim>
				</port>
			</output>
		</layer>
		<layer id="417" name="conv5_1/sep/bn/mean/Fused_Mul__copy3704160/quantized47639142" type="Const" version="opset1">
			<data element_type="i8" offset="296446" shape="512,512,1,1" size="262144"/>
			<output>
				<port id="0" precision="I8">
					<dim>512</dim>
					<dim>512</dim>
					<dim>1</dim>
					<dim>1</dim>
				</port>
			</output>
		</layer>
		<layer id="418" name="conv5_1/sep/bn/mean/Fused_Mul__copy3704160/quantized/to_f16" type="Convert" version="opset1">
			<data destination_type="f16"/>
			<input>
				<port id="0">
					<dim>512</dim>
					<dim>512</dim>
					<dim>1</dim>
					<dim>1</dim>
				</port>
			</input>
			<output>
				<port id="1" precision="FP16">
					<dim>512</dim>
					<dim>512</dim>
					<dim>1</dim>
					<dim>1</dim>
				</port>
			</output>
		</layer>
		<layer id="419" name="conv5_1/sep/fq_weights_1/zero_point47769157" type="Const" version="opset1">
			<data element_type="f16" offset="558590" shape="512,1,1,1" size="1024"/>
			<output>
				<port id="0" precision="FP16">
					<dim>512</dim>
					<dim>1</dim>
					<dim>1</dim>
					<dim>1</dim>
				</port>
			</output>
		</layer>
		<layer id="420" name="conv5_1/sep/fq_weights_1/minus_zp" type="Subtract" version="opset1">
			<data auto_broadcast="numpy"/>
			<input>
				<port id="0">
					<dim>512</dim>
					<dim>512</dim>
					<dim>1</dim>
					<dim>1</dim>
				</port>
				<port id="1">
					<dim>512</dim>
					<dim>1</dim>
					<dim>1</dim>
					<dim>1</dim>
				</port>
			</input>
			<output>
				<port id="2" precision="FP16">
					<dim>512</dim>
					<dim>512</dim>
					<dim>1</dim>
					<dim>1</dim>
				</port>
			</output>
		</layer>
		<layer id="421" name="conv5_1/sep/fq_weights_1/scale47719640" type="Const" version="opset1">
			<data element_type="f16" offset="559614" shape="512,1,1,1" size="1024"/>
			<output>
				<port id="0" precision="FP16">
					<dim>512</dim>
					<dim>1</dim>
					<dim>1</dim>
					<dim>1</dim>
				</port>
			</output>
		</layer>
		<layer id="422" name="conv5_1/sep/fq_weights_1/mulpiply_by_scale" type="Multiply" version="opset1">
			<data auto_broadcast="numpy"/>
			<input>
				<port id="0">
					<dim>512</dim>
					<dim>512</dim>
					<dim>1</dim>
					<dim>1</dim>
				</port>
				<port id="1">
					<dim>512</dim>
					<dim>1</dim>
					<dim>1</dim>
					<dim>1</dim>
				</port>
			</input>
			<output>
				<port id="2" precision="FP16">
					<dim>512</dim>
					<dim>512</dim>
					<dim>1</dim>
					<dim>1</dim>
				</port>
			</output>
		</layer>
		<layer id="423" name="conv5_1/sep" type="Convolution" version="opset1">
			<data auto_pad="explicit" dilations="1,1" pads_begin="0,0" pads_end="0,0" strides="1,1"/>
			<input>
				<port id="0">
					<dim>1</dim>
					<dim>512</dim>
					<dim>32</dim>
					<dim>57</dim>
				</port>
				<port id="1">
					<dim>512</dim>
					<dim>512</dim>
					<dim>1</dim>
					<dim>1</dim>
				</port>
			</input>
			<output>
				<port id="2" precision="FP16">
					<dim>1</dim>
					<dim>512</dim>
					<dim>32</dim>
					<dim>57</dim>
				</port>
			</output>
		</layer>
		<layer id="424" name="data_add_875487593728491" type="Const" version="opset1">
			<data element_type="f16" offset="560638" shape="1,512,1,1" size="1024"/>
			<output>
				<port id="0" precision="FP16">
					<dim>1</dim>
					<dim>512</dim>
					<dim>1</dim>
					<dim>1</dim>
				</port>
			</output>
		</layer>
		<layer id="425" name="conv5_1/sep/bn/variance/Fused_Add_" type="Add" version="opset1">
			<data auto_broadcast="numpy"/>
			<input>
				<port id="0">
					<dim>1</dim>
					<dim>512</dim>
					<dim>32</dim>
					<dim>57</dim>
				</port>
				<port id="1">
					<dim>1</dim>
					<dim>512</dim>
					<dim>1</dim>
					<dim>1</dim>
				</port>
			</input>
			<output>
				<port id="2" names="conv5_1/sep" precision="FP16">
					<dim>1</dim>
					<dim>512</dim>
					<dim>32</dim>
					<dim>57</dim>
				</port>
			</output>
		</layer>
		<layer id="426" name="relu5_1/sep" type="ReLU" version="opset1">
			<input>
				<port id="0">
					<dim>1</dim>
					<dim>512</dim>
					<dim>32</dim>
					<dim>57</dim>
				</port>
			</input>
			<output>
				<port id="1" names="conv5_1/sep" precision="FP16">
					<dim>1</dim>
					<dim>512</dim>
					<dim>32</dim>
					<dim>57</dim>
				</port>
			</output>
		</layer>
		<layer id="427" name="conv5_2/dw/fq_input_0" type="FakeQuantize" version="opset1">
			<data auto_broadcast="numpy" levels="256"/>
			<input>
				<port id="0">
					<dim>1</dim>
					<dim>512</dim>
					<dim>32</dim>
					<dim>57</dim>
				</port>
				<port id="1">
					<dim>1</dim>
					<dim>512</dim>
					<dim>1</dim>
					<dim>1</dim>
				</port>
				<port id="2">
					<dim>1</dim>
					<dim>512</dim>
					<dim>1</dim>
					<dim>1</dim>
				</port>
				<port id="3">
					<dim>1</dim>
					<dim>512</dim>
					<dim>1</dim>
					<dim>1</dim>
				</port>
				<port id="4">
					<dim>1</dim>
					<dim>512</dim>
					<dim>1</dim>
					<dim>1</dim>
				</port>
			</input>
			<output>
				<port id="5" precision="FP16">
					<dim>1</dim>
					<dim>512</dim>
					<dim>32</dim>
					<dim>57</dim>
				</port>
			</output>
		</layer>
		<layer id="428" name="7140/value71428611" type="Const" version="opset1">
			<data element_type="i64" offset="288726" shape="5" size="40"/>
			<output>
				<port id="0" precision="I64">
					<dim>5</dim>
				</port>
			</output>
		</layer>
		<layer id="429" name="conv5_2/dw/bn/mean/Fused_Mul__copy3754162/quantized52438242" type="Const" version="opset1">
			<data element_type="i8" offset="561662" shape="512,1,3,3" size="4608"/>
			<output>
				<port id="0" precision="I8">
					<dim>512</dim>
					<dim>1</dim>
					<dim>3</dim>
					<dim>3</dim>
				</port>
			</output>
		</layer>
		<layer id="430" name="conv5_2/dw/bn/mean/Fused_Mul__copy3754162/quantized/to_f16" type="Convert" version="opset1">
			<data destination_type="f16"/>
			<input>
				<port id="0">
					<dim>512</dim>
					<dim>1</dim>
					<dim>3</dim>
					<dim>3</dim>
				</port>
			</input>
			<output>
				<port id="1" precision="FP16">
					<dim>512</dim>
					<dim>1</dim>
					<dim>3</dim>
					<dim>3</dim>
				</port>
			</output>
		</layer>
		<layer id="431" name="conv5_2/dw/fq_weights_1/zero_point52569487" type="Const" version="opset1">
			<data element_type="f16" offset="566270" shape="512,1,1,1" size="1024"/>
			<output>
				<port id="0" precision="FP16">
					<dim>512</dim>
					<dim>1</dim>
					<dim>1</dim>
					<dim>1</dim>
				</port>
			</output>
		</layer>
		<layer id="432" name="conv5_2/dw/fq_weights_1/minus_zp" type="Subtract" version="opset1">
			<data auto_broadcast="numpy"/>
			<input>
				<port id="0">
					<dim>512</dim>
					<dim>1</dim>
					<dim>3</dim>
					<dim>3</dim>
				</port>
				<port id="1">
					<dim>512</dim>
					<dim>1</dim>
					<dim>1</dim>
					<dim>1</dim>
				</port>
			</input>
			<output>
				<port id="2" precision="FP16">
					<dim>512</dim>
					<dim>1</dim>
					<dim>3</dim>
					<dim>3</dim>
				</port>
			</output>
		</layer>
		<layer id="433" name="conv5_2/dw/fq_weights_1/scale52518575" type="Const" version="opset1">
			<data element_type="f16" offset="567294" shape="512,1,1,1" size="1024"/>
			<output>
				<port id="0" precision="FP16">
					<dim>512</dim>
					<dim>1</dim>
					<dim>1</dim>
					<dim>1</dim>
				</port>
			</output>
		</layer>
		<layer id="434" name="conv5_2/dw/fq_weights_1/mulpiply_by_scale" type="Multiply" version="opset1">
			<data auto_broadcast="numpy"/>
			<input>
				<port id="0">
					<dim>512</dim>
					<dim>1</dim>
					<dim>3</dim>
					<dim>3</dim>
				</port>
				<port id="1">
					<dim>512</dim>
					<dim>1</dim>
					<dim>1</dim>
					<dim>1</dim>
				</port>
			</input>
			<output>
				<port id="2" precision="FP16">
					<dim>512</dim>
					<dim>1</dim>
					<dim>3</dim>
					<dim>3</dim>
				</port>
			</output>
		</layer>
		<layer id="435" name="7140" type="Reshape" version="opset1">
			<data special_zero="true"/>
			<input>
				<port id="0">
					<dim>512</dim>
					<dim>1</dim>
					<dim>3</dim>
					<dim>3</dim>
				</port>
				<port id="1">
					<dim>5</dim>
				</port>
			</input>
			<output>
				<port id="2" precision="FP16">
					<dim>512</dim>
					<dim>1</dim>
					<dim>1</dim>
					<dim>3</dim>
					<dim>3</dim>
				</port>
			</output>
		</layer>
		<layer id="436" name="conv5_2/dw" type="GroupConvolution" version="opset1">
			<data auto_pad="explicit" dilations="1,1" pads_begin="1,1" pads_end="1,1" strides="1,1"/>
			<input>
				<port id="0">
					<dim>1</dim>
					<dim>512</dim>
					<dim>32</dim>
					<dim>57</dim>
				</port>
				<port id="1">
					<dim>512</dim>
					<dim>1</dim>
					<dim>1</dim>
					<dim>3</dim>
					<dim>3</dim>
				</port>
			</input>
			<output>
				<port id="2" precision="FP16">
					<dim>1</dim>
					<dim>512</dim>
					<dim>32</dim>
					<dim>57</dim>
				</port>
			</output>
		</layer>
		<layer id="437" name="data_add_876287673779463" type="Const" version="opset1">
			<data element_type="f16" offset="568318" shape="1,512,1,1" size="1024"/>
			<output>
				<port id="0" precision="FP16">
					<dim>1</dim>
					<dim>512</dim>
					<dim>1</dim>
					<dim>1</dim>
				</port>
			</output>
		</layer>
		<layer id="438" name="conv5_2/dw/bn/variance/Fused_Add_" type="Add" version="opset1">
			<data auto_broadcast="numpy"/>
			<input>
				<port id="0">
					<dim>1</dim>
					<dim>512</dim>
					<dim>32</dim>
					<dim>57</dim>
				</port>
				<port id="1">
					<dim>1</dim>
					<dim>512</dim>
					<dim>1</dim>
					<dim>1</dim>
				</port>
			</input>
			<output>
				<port id="2" names="conv5_2/dw" precision="FP16">
					<dim>1</dim>
					<dim>512</dim>
					<dim>32</dim>
					<dim>57</dim>
				</port>
			</output>
		</layer>
		<layer id="439" name="relu5_2/dw" type="ReLU" version="opset1">
			<input>
				<port id="0">
					<dim>1</dim>
					<dim>512</dim>
					<dim>32</dim>
					<dim>57</dim>
				</port>
			</input>
			<output>
				<port id="1" names="conv5_2/dw" precision="FP16">
					<dim>1</dim>
					<dim>512</dim>
					<dim>32</dim>
					<dim>57</dim>
				</port>
			</output>
		</layer>
		<layer id="440" name="conv5_2/sep/fq_input_0" type="FakeQuantize" version="opset1">
			<data auto_broadcast="numpy" levels="256"/>
			<input>
				<port id="0">
					<dim>1</dim>
					<dim>512</dim>
					<dim>32</dim>
					<dim>57</dim>
				</port>
				<port id="1"/>
				<port id="2"/>
				<port id="3"/>
				<port id="4"/>
			</input>
			<output>
				<port id="5" precision="FP16">
					<dim>1</dim>
					<dim>512</dim>
					<dim>32</dim>
					<dim>57</dim>
				</port>
			</output>
		</layer>
		<layer id="441" name="conv5_2/sep/bn/mean/Fused_Mul__copy3804164/quantized53159139" type="Const" version="opset1">
			<data element_type="i8" offset="569342" shape="512,512,1,1" size="262144"/>
			<output>
				<port id="0" precision="I8">
					<dim>512</dim>
					<dim>512</dim>
					<dim>1</dim>
					<dim>1</dim>
				</port>
			</output>
		</layer>
		<layer id="442" name="conv5_2/sep/bn/mean/Fused_Mul__copy3804164/quantized/to_f16" type="Convert" version="opset1">
			<data destination_type="f16"/>
			<input>
				<port id="0">
					<dim>512</dim>
					<dim>512</dim>
					<dim>1</dim>
					<dim>1</dim>
				</port>
			</input>
			<output>
				<port id="1" precision="FP16">
					<dim>512</dim>
					<dim>512</dim>
					<dim>1</dim>
					<dim>1</dim>
				</port>
			</output>
		</layer>
		<layer id="443" name="conv5_2/sep/fq_weights_1/zero_point53288488" type="Const" version="opset1">
			<data element_type="f16" offset="831486" shape="512,1,1,1" size="1024"/>
			<output>
				<port id="0" precision="FP16">
					<dim>512</dim>
					<dim>1</dim>
					<dim>1</dim>
					<dim>1</dim>
				</port>
			</output>
		</layer>
		<layer id="444" name="conv5_2/sep/fq_weights_1/minus_zp" type="Subtract" version="opset1">
			<data auto_broadcast="numpy"/>
			<input>
				<port id="0">
					<dim>512</dim>
					<dim>512</dim>
					<dim>1</dim>
					<dim>1</dim>
				</port>
				<port id="1">
					<dim>512</dim>
					<dim>1</dim>
					<dim>1</dim>
					<dim>1</dim>
				</port>
			</input>
			<output>
				<port id="2" precision="FP16">
					<dim>512</dim>
					<dim>512</dim>
					<dim>1</dim>
					<dim>1</dim>
				</port>
			</output>
		</layer>
		<layer id="445" name="conv5_2/sep/fq_weights_1/scale53238620" type="Const" version="opset1">
			<data element_type="f16" offset="832510" shape="512,1,1,1" size="1024"/>
			<output>
				<port id="0" precision="FP16">
					<dim>512</dim>
					<dim>1</dim>
					<dim>1</dim>
					<dim>1</dim>
				</port>
			</output>
		</layer>
		<layer id="446" name="conv5_2/sep/fq_weights_1/mulpiply_by_scale" type="Multiply" version="opset1">
			<data auto_broadcast="numpy"/>
			<input>
				<port id="0">
					<dim>512</dim>
					<dim>512</dim>
					<dim>1</dim>
					<dim>1</dim>
				</port>
				<port id="1">
					<dim>512</dim>
					<dim>1</dim>
					<dim>1</dim>
					<dim>1</dim>
				</port>
			</input>
			<output>
				<port id="2" precision="FP16">
					<dim>512</dim>
					<dim>512</dim>
					<dim>1</dim>
					<dim>1</dim>
				</port>
			</output>
		</layer>
		<layer id="447" name="conv5_2/sep" type="Convolution" version="opset1">
			<data auto_pad="explicit" dilations="1,1" pads_begin="0,0" pads_end="0,0" strides="1,1"/>
			<input>
				<port id="0">
					<dim>1</dim>
					<dim>512</dim>
					<dim>32</dim>
					<dim>57</dim>
				</port>
				<port id="1">
					<dim>512</dim>
					<dim>512</dim>
					<dim>1</dim>
					<dim>1</dim>
				</port>
			</input>
			<output>
				<port id="2" precision="FP16">
					<dim>1</dim>
					<dim>512</dim>
					<dim>32</dim>
					<dim>57</dim>
				</port>
			</output>
		</layer>
		<layer id="448" name="data_add_877087753829082" type="Const" version="opset1">
			<data element_type="f16" offset="833534" shape="1,512,1,1" size="1024"/>
			<output>
				<port id="0" precision="FP16">
					<dim>1</dim>
					<dim>512</dim>
					<dim>1</dim>
					<dim>1</dim>
				</port>
			</output>
		</layer>
		<layer id="449" name="conv5_2/sep/bn/variance/Fused_Add_" type="Add" version="opset1">
			<data auto_broadcast="numpy"/>
			<input>
				<port id="0">
					<dim>1</dim>
					<dim>512</dim>
					<dim>32</dim>
					<dim>57</dim>
				</port>
				<port id="1">
					<dim>1</dim>
					<dim>512</dim>
					<dim>1</dim>
					<dim>1</dim>
				</port>
			</input>
			<output>
				<port id="2" names="conv5_2/sep" precision="FP16">
					<dim>1</dim>
					<dim>512</dim>
					<dim>32</dim>
					<dim>57</dim>
				</port>
			</output>
		</layer>
		<layer id="450" name="relu5_2/sep" type="ReLU" version="opset1">
			<input>
				<port id="0">
					<dim>1</dim>
					<dim>512</dim>
					<dim>32</dim>
					<dim>57</dim>
				</port>
			</input>
			<output>
				<port id="1" names="conv5_2/sep" precision="FP16">
					<dim>1</dim>
					<dim>512</dim>
					<dim>32</dim>
					<dim>57</dim>
				</port>
			</output>
		</layer>
		<layer id="451" name="conv5_3/dw/fq_input_0" type="FakeQuantize" version="opset1">
			<data auto_broadcast="numpy" levels="256"/>
			<input>
				<port id="0">
					<dim>1</dim>
					<dim>512</dim>
					<dim>32</dim>
					<dim>57</dim>
				</port>
				<port id="1">
					<dim>1</dim>
					<dim>512</dim>
					<dim>1</dim>
					<dim>1</dim>
				</port>
				<port id="2">
					<dim>1</dim>
					<dim>512</dim>
					<dim>1</dim>
					<dim>1</dim>
				</port>
				<port id="3">
					<dim>1</dim>
					<dim>512</dim>
					<dim>1</dim>
					<dim>1</dim>
				</port>
				<port id="4">
					<dim>1</dim>
					<dim>512</dim>
					<dim>1</dim>
					<dim>1</dim>
				</port>
			</input>
			<output>
				<port id="5" precision="FP16">
					<dim>1</dim>
					<dim>512</dim>
					<dim>32</dim>
					<dim>57</dim>
				</port>
			</output>
		</layer>
		<layer id="452" name="7144/value71468287" type="Const" version="opset1">
			<data element_type="i64" offset="288726" shape="5" size="40"/>
			<output>
				<port id="0" precision="I64">
					<dim>5</dim>
				</port>
			</output>
		</layer>
		<layer id="453" name="conv5_3/dw/bn/mean/Fused_Mul__copy3854166/quantized51238845" type="Const" version="opset1">
			<data element_type="i8" offset="834558" shape="512,1,3,3" size="4608"/>
			<output>
				<port id="0" precision="I8">
					<dim>512</dim>
					<dim>1</dim>
					<dim>3</dim>
					<dim>3</dim>
				</port>
			</output>
		</layer>
		<layer id="454" name="conv5_3/dw/bn/mean/Fused_Mul__copy3854166/quantized/to_f16" type="Convert" version="opset1">
			<data destination_type="f16"/>
			<input>
				<port id="0">
					<dim>512</dim>
					<dim>1</dim>
					<dim>3</dim>
					<dim>3</dim>
				</port>
			</input>
			<output>
				<port id="1" precision="FP16">
					<dim>512</dim>
					<dim>1</dim>
					<dim>3</dim>
					<dim>3</dim>
				</port>
			</output>
		</layer>
		<layer id="455" name="conv5_3/dw/fq_weights_1/zero_point51369412" type="Const" version="opset1">
			<data element_type="f16" offset="839166" shape="512,1,1,1" size="1024"/>
			<output>
				<port id="0" precision="FP16">
					<dim>512</dim>
					<dim>1</dim>
					<dim>1</dim>
					<dim>1</dim>
				</port>
			</output>
		</layer>
		<layer id="456" name="conv5_3/dw/fq_weights_1/minus_zp" type="Subtract" version="opset1">
			<data auto_broadcast="numpy"/>
			<input>
				<port id="0">
					<dim>512</dim>
					<dim>1</dim>
					<dim>3</dim>
					<dim>3</dim>
				</port>
				<port id="1">
					<dim>512</dim>
					<dim>1</dim>
					<dim>1</dim>
					<dim>1</dim>
				</port>
			</input>
			<output>
				<port id="2" precision="FP16">
					<dim>512</dim>
					<dim>1</dim>
					<dim>3</dim>
					<dim>3</dim>
				</port>
			</output>
		</layer>
		<layer id="457" name="conv5_3/dw/fq_weights_1/scale51318164" type="Const" version="opset1">
			<data element_type="f16" offset="840190" shape="512,1,1,1" size="1024"/>
			<output>
				<port id="0" precision="FP16">
					<dim>512</dim>
					<dim>1</dim>
					<dim>1</dim>
					<dim>1</dim>
				</port>
			</output>
		</layer>
		<layer id="458" name="conv5_3/dw/fq_weights_1/mulpiply_by_scale" type="Multiply" version="opset1">
			<data auto_broadcast="numpy"/>
			<input>
				<port id="0">
					<dim>512</dim>
					<dim>1</dim>
					<dim>3</dim>
					<dim>3</dim>
				</port>
				<port id="1">
					<dim>512</dim>
					<dim>1</dim>
					<dim>1</dim>
					<dim>1</dim>
				</port>
			</input>
			<output>
				<port id="2" precision="FP16">
					<dim>512</dim>
					<dim>1</dim>
					<dim>3</dim>
					<dim>3</dim>
				</port>
			</output>
		</layer>
		<layer id="459" name="7144" type="Reshape" version="opset1">
			<data special_zero="true"/>
			<input>
				<port id="0">
					<dim>512</dim>
					<dim>1</dim>
					<dim>3</dim>
					<dim>3</dim>
				</port>
				<port id="1">
					<dim>5</dim>
				</port>
			</input>
			<output>
				<port id="2" precision="FP16">
					<dim>512</dim>
					<dim>1</dim>
					<dim>1</dim>
					<dim>3</dim>
					<dim>3</dim>
				</port>
			</output>
		</layer>
		<layer id="460" name="conv5_3/dw" type="GroupConvolution" version="opset1">
			<data auto_pad="explicit" dilations="1,1" pads_begin="1,1" pads_end="1,1" strides="1,1"/>
			<input>
				<port id="0">
					<dim>1</dim>
					<dim>512</dim>
					<dim>32</dim>
					<dim>57</dim>
				</port>
				<port id="1">
					<dim>512</dim>
…
		<edge from-layer="440" from-port="5" to-layer="447" to-port="0"/>
		<edge from-layer="446" from-port="2" to-layer="447" to-port="1"/>
		<edge from-layer="447" from-port="2" to-layer="449" to-port="0"/>
		<edge from-layer="448" from-port="0" to-layer="449" to-port="1"/>
		<edge from-layer="449" from-port="2" to-layer="450" to-port="0"/>
		<edge from-layer="450" from-port="1" to-layer="451" to-port="0"/>
		<edge from-layer="171" from-port="0" to-layer="451" to-port="1"/>
		<edge from-layer="172" from-port="0" to-layer="451" to-port="2"/>
		<edge from-layer="173" from-port="0" to-layer="451" to-port="3"/>
		<edge from-layer="174" from-port="0" to-layer="451" to-port="4"/>
		<edge from-layer="453" from-port="0" to-layer="454" to-port="0"/>
		<edge from-layer="454" from-port="1" to-layer="456" to-port="0"/>
		<edge from-layer="455" from-port="0" to-layer="456" to-port="1"/>
		<edge from-layer="456" from-port="2" to-layer="458" to-port="0"/>
		<edge from-layer="457" from-port="0" to-layer="458" to-port="1"/>
		<edge from-layer="458" from-port="2" to-layer="459" to-port="0"/>
		<edge from-layer="452" from-port="0" to-layer="459" to-port="1"/>
		<edge from-layer="451" from-port="5" to-layer="460" to-port="0"/>
		<edge from-layer="459" from-port="2" to-layer="460" to-port="1"/>
		<edge from-layer="460" from-port="2" to-layer="462" to-port="0"/>
		<edge from-layer="461" from-port="0" to-layer="462" to-port="1"/>
		<edge from-layer="462" from-port="2" to-layer="463" to-port="0"/>
		<edge from-layer="463" from-port="1" to-layer="464" to-port="0"/>
		<edge from-layer="167" from-port="0" to-layer="464" to-port="1"/>
		<edge from-layer="168" from-port="0" to-layer="464" to-port="2"/>
		<edge from-layer="169" from-port="0" to-layer="464" to-port="3"/>
		<edge from-layer="170" from-port="0" to-layer="464" to-port="4"/>
		<edge from-layer="465" from-port="0" to-layer="466" to-port="0"/>
		<edge from-layer="466" from-port="1" to-layer="468" to-port="0"/>
		<edge from-layer="467" from-port="0" to-layer="468" to-port="1"/>
		<edge from-layer="468" from-port="2" to-layer="470" to-port="0"/>
		<edge from-layer="469" from-port="0" to-layer="470" to-port="1"/>
		<edge from-layer="464" from-port="5" to-layer="471" to-port="0"/>
		<edge from-layer="470" from-port="2" to-layer="471" to-port="1"/>
		<edge from-layer="471" from-port="2" to-layer="473" to-port="0"/>
		<edge from-layer="472" from-port="0" to-layer="473" to-port="1"/>
		<edge from-layer="473" from-port="2" to-layer="474" to-port="0"/>
		<edge from-layer="474" from-port="1" to-layer="475" to-port="0"/>
		<edge from-layer="163" from-port="0" to-layer="475" to-port="1"/>
		<edge from-layer="164" from-port="0" to-layer="475" to-port="2"/>
		<edge from-layer="165" from-port="0" to-layer="475" to-port="3"/>
		<edge from-layer="166" from-port="0" to-layer="475" to-port="4"/>
		<edge from-layer="477" from-port="0" to-layer="478" to-port="0"/>
		<edge from-layer="478" from-port="1" to-layer="480" to-port="0"/>
		<edge from-layer="479" from-port="0" to-layer="480" to-port="1"/>
		<edge from-layer="480" from-port="2" to-layer="482" to-port="0"/>
		<edge from-layer="481" from-port="0" to-layer="482" to-port="1"/>
		<edge from-layer="482" from-port="2" to-layer="483" to-port="0"/>
		<edge from-layer="476" from-port="0" to-layer="483" to-port="1"/>
		<edge from-layer="475" from-port="5" to-layer="484" to-port="0"/>
		<edge from-layer="483" from-port="2" to-layer="484" to-port="1"/>
		<edge from-layer="484" from-port="2" to-layer="486" to-port="0"/>
		<edge from-layer="485" from-port="0" to-layer="486" to-port="1"/>
		<edge from-layer="486" from-port="2" to-layer="487" to-port="0"/>
		<edge from-layer="487" from-port="1" to-layer="488" to-port="0"/>
		<edge from-layer="159" from-port="0" to-layer="488" to-port="1"/>
		<edge from-layer="160" from-port="0" to-layer="488" to-port="2"/>
		<edge from-layer="161" from-port="0" to-layer="488" to-port="3"/>
		<edge from-layer="162" from-port="0" to-layer="488" to-port="4"/>
		<edge from-layer="489" from-port="0" to-layer="490" to-port="0"/>
		<edge from-layer="490" from-port="1" to-layer="492" to-port="0"/>
		<edge from-layer="491" from-port="0" to-layer="492" to-port="1"/>
		<edge from-layer="492" from-port="2" to-layer="494" to-port="0"/>
		<edge from-layer="493" from-port="0" to-layer="494" to-port="1"/>
		<edge from-layer="488" from-port="5" to-layer="495" to-port="0"/>
		<edge from-layer="494" from-port="2" to-layer="495" to-port="1"/>
		<edge from-layer="495" from-port="2" to-layer="497" to-port="0"/>
		<edge from-layer="496" from-port="0" to-layer="497" to-port="1"/>
		<edge from-layer="497" from-port="2" to-layer="498" to-port="0"/>
		<edge from-layer="498" from-port="1" to-layer="499" to-port="0"/>
		<edge from-layer="155" from-port="0" to-layer="499" to-port="1"/>
		<edge from-layer="156" from-port="0" to-layer="499" to-port="2"/>
		<edge from-layer="157" from-port="0" to-layer="499" to-port="3"/>
		<edge from-layer="158" from-port="0" to-layer="499" to-port="4"/>
		<edge from-layer="501" from-port="0" to-layer="502" to-port="0"/>
		<edge from-layer="502" from-port="1" to-layer="504" to-port="0"/>
		<edge from-layer="503" from-port="0" to-layer="504" to-port="1"/>
		<edge from-layer="504" from-port="2" to-layer="506" to-port="0"/>
		<edge from-layer="505" from-port="0" to-layer="506" to-port="1"/>
		<edge from-layer="506" from-port="2" to-layer="507" to-port="0"/>
		<edge from-layer="500" from-port="0" to-layer="507" to-port="1"/>
		<edge from-layer="499" from-port="5" to-layer="508" to-port="0"/>
		<edge from-layer="507" from-port="2" to-layer="508" to-port="1"/>
		<edge from-layer="508" from-port="2" to-layer="510" to-port="0"/>
		<edge from-layer="509" from-port="0" to-layer="510" to-port="1"/>
		<edge from-layer="510" from-port="2" to-layer="511" to-port="0"/>
		<edge from-layer="511" from-port="1" to-layer="512" to-port="0"/>
		<edge from-layer="151" from-port="0" to-layer="512" to-port="1"/>
		<edge from-layer="152" from-port="0" to-layer="512" to-port="2"/>
		<edge from-layer="153" from-port="0" to-layer="512" to-port="3"/>
		<edge from-layer="154" from-port="0" to-layer="512" to-port="4"/>
		<edge from-layer="513" from-port="0" to-layer="514" to-port="0"/>
		<edge from-layer="514" from-port="1" to-layer="516" to-port="0"/>
		<edge from-layer="515" from-port="0" to-layer="516" to-port="1"/>
		<edge from-layer="516" from-port="2" to-layer="518" to-port="0"/>
		<edge from-layer="517" from-port="0" to-layer="518" to-port="1"/>
		<edge from-layer="512" from-port="5" to-layer="519" to-port="0"/>
		<edge from-layer="518" from-port="2" to-layer="519" to-port="1"/>
		<edge from-layer="519" from-port="2" to-layer="521" to-port="0"/>
		<edge from-layer="520" from-port="0" to-layer="521" to-port="1"/>
		<edge from-layer="521" from-port="2" to-layer="522" to-port="0"/>
		<edge from-layer="522" from-port="1" to-layer="523" to-port="0"/>
		<edge from-layer="147" from-port="0" to-layer="523" to-port="1"/>
		<edge from-layer="148" from-port="0" to-layer="523" to-port="2"/>
		<edge from-layer="149" from-port="0" to-layer="523" to-port="3"/>
		<edge from-layer="150" from-port="0" to-layer="523" to-port="4"/>
		<edge from-layer="524" from-port="0" to-layer="525" to-port="0"/>
		<edge from-layer="525" from-port="1" to-layer="527" to-port="0"/>
		<edge from-layer="526" from-port="0" to-layer="527" to-port="1"/>
		<edge from-layer="527" from-port="2" to-layer="529" to-port="0"/>
		<edge from-layer="528" from-port="0" to-layer="529" to-port="1"/>
		<edge from-layer="523" from-port="5" to-layer="530" to-port="0"/>
		<edge from-layer="529" from-port="2" to-layer="530" to-port="1"/>
		<edge from-layer="530" from-port="2" to-layer="532" to-port="0"/>
		<edge from-layer="531" from-port="0" to-layer="532" to-port="1"/>
		<edge from-layer="532" from-port="2" to-layer="533" to-port="0"/>
		<edge from-layer="533" from-port="1" to-layer="534" to-port="0"/>
		<edge from-layer="143" from-port="0" to-layer="534" to-port="1"/>
		<edge from-layer="144" from-port="0" to-layer="534" to-port="2"/>
		<edge from-layer="145" from-port="0" to-layer="534" to-port="3"/>
		<edge from-layer="146" from-port="0" to-layer="534" to-port="4"/>
		<edge from-layer="535" from-port="0" to-layer="536" to-port="0"/>
		<edge from-layer="536" from-port="1" to-layer="538" to-port="0"/>
		<edge from-layer="537" from-port="0" to-layer="538" to-port="1"/>
		<edge from-layer="538" from-port="2" to-layer="540" to-port="0"/>
		<edge from-layer="539" from-port="0" to-layer="540" to-port="1"/>
		<edge from-layer="534" from-port="5" to-layer="541" to-port="0"/>
		<edge from-layer="540" from-port="2" to-layer="541" to-port="1"/>
		<edge from-layer="541" from-port="2" to-layer="543" to-port="0"/>
		<edge from-layer="542" from-port="0" to-layer="543" to-port="1"/>
		<edge from-layer="543" from-port="2" to-layer="544" to-port="0"/>
		<edge from-layer="544" from-port="1" to-layer="545" to-port="0"/>
		<edge from-layer="139" from-port="0" to-layer="545" to-port="1"/>
		<edge from-layer="140" from-port="0" to-layer="545" to-port="2"/>
		<edge from-layer="141" from-port="0" to-layer="545" to-port="3"/>
		<edge from-layer="142" from-port="0" to-layer="545" to-port="4"/>
		<edge from-layer="547" from-port="0" to-layer="548" to-port="0"/>
		<edge from-layer="548" from-port="1" to-layer="550" to-port="0"/>
		<edge from-layer="549" from-port="0" to-layer="550" to-port="1"/>
		<edge from-layer="550" from-port="2" to-layer="552" to-port="0"/>
		<edge from-layer="551" from-port="0" to-layer="552" to-port="1"/>
		<edge from-layer="552" from-port="2" to-layer="553" to-port="0"/>
		<edge from-layer="546" from-port="0" to-layer="553" to-port="1"/>
		<edge from-layer="545" from-port="5" to-layer="554" to-port="0"/>
		<edge from-layer="553" from-port="2" to-layer="554" to-port="1"/>
		<edge from-layer="554" from-port="2" to-layer="555" to-port="0"/>
		<edge from-layer="138" from-port="0" to-layer="555" to-port="1"/>
		<edge from-layer="555" from-port="2" to-layer="556" to-port="0"/>
		<edge from-layer="556" from-port="1" to-layer="557" to-port="0"/>
		<edge from-layer="134" from-port="0" to-layer="557" to-port="1"/>
		<edge from-layer="135" from-port="0" to-layer="557" to-port="2"/>
		<edge from-layer="136" from-port="0" to-layer="557" to-port="3"/>
		<edge from-layer="137" from-port="0" to-layer="557" to-port="4"/>
		<edge from-layer="558" from-port="0" to-layer="559" to-port="0"/>
		<edge from-layer="559" from-port="1" to-layer="561" to-port="0"/>
		<edge from-layer="560" from-port="0" to-layer="561" to-port="1"/>
		<edge from-layer="561" from-port="2" to-layer="563" to-port="0"/>
		<edge from-layer="562" from-port="0" to-layer="563" to-port="1"/>
		<edge from-layer="557" from-port="5" to-layer="564" to-port="0"/>
		<edge from-layer="563" from-port="2" to-layer="564" to-port="1"/>
		<edge from-layer="564" from-port="2" to-layer="566" to-port="0"/>
		<edge from-layer="565" from-port="0" to-layer="566" to-port="1"/>
		<edge from-layer="566" from-port="2" to-layer="567" to-port="0"/>
		<edge from-layer="567" from-port="1" to-layer="568" to-port="0"/>
		<edge from-layer="130" from-port="0" to-layer="568" to-port="1"/>
		<edge from-layer="131" from-port="0" to-layer="568" to-port="2"/>
		<edge from-layer="132" from-port="0" to-layer="568" to-port="3"/>
		<edge from-layer="133" from-port="0" to-layer="568" to-port="4"/>
		<edge from-layer="570" from-port="0" to-layer="571" to-port="0"/>
		<edge from-layer="571" from-port="1" to-layer="573" to-port="0"/>
		<edge from-layer="572" from-port="0" to-layer="573" to-port="1"/>
		<edge from-layer="573" from-port="2" to-layer="575" to-port="0"/>
		<edge from-layer="574" from-port="0" to-layer="575" to-port="1"/>
		<edge from-layer="575" from-port="2" to-layer="576" to-port="0"/>
		<edge from-layer="569" from-port="0" to-layer="576" to-port="1"/>
		<edge from-layer="568" from-port="5" to-layer="577" to-port="0"/>
		<edge from-layer="576" from-port="2" to-layer="577" to-port="1"/>
		<edge from-layer="577" from-port="2" to-layer="578" to-port="0"/>
		<edge from-layer="129" from-port="0" to-layer="578" to-port="1"/>
		<edge from-layer="578" from-port="2" to-layer="579" to-port="0"/>
		<edge from-layer="579" from-port="1" to-layer="580" to-port="0"/>
		<edge from-layer="125" from-port="0" to-layer="580" to-port="1"/>
		<edge from-layer="126" from-port="0" to-layer="580" to-port="2"/>
		<edge from-layer="127" from-port="0" to-layer="580" to-port="3"/>
		<edge from-layer="128" from-port="0" to-layer="580" to-port="4"/>
		<edge from-layer="581" from-port="0" to-layer="582" to-port="0"/>
		<edge from-layer="582" from-port="1" to-layer="584" to-port="0"/>
		<edge from-layer="583" from-port="0" to-layer="584" to-port="1"/>
		<edge from-layer="584" from-port="2" to-layer="586" to-port="0"/>
		<edge from-layer="585" from-port="0" to-layer="586" to-port="1"/>
		<edge from-layer="580" from-port="5" to-layer="587" to-port="0"/>
		<edge from-layer="586" from-port="2" to-layer="587" to-port="1"/>
		<edge from-layer="587" from-port="2" to-layer="589" to-port="0"/>
		<edge from-layer="588" from-port="0" to-layer="589" to-port="1"/>
		<edge from-layer="589" from-port="2" to-layer="590" to-port="0"/>
		<edge from-layer="590" from-port="1" to-layer="591" to-port="0"/>
		<edge from-layer="121" from-port="0" to-layer="591" to-port="1"/>
		<edge from-layer="122" from-port="0" to-layer="591" to-port="2"/>
		<edge from-layer="123" from-port="0" to-layer="591" to-port="3"/>
		<edge from-layer="124" from-port="0" to-layer="591" to-port="4"/>
		<edge from-layer="593" from-port="0" to-layer="594" to-port="0"/>
		<edge from-layer="594" from-port="1" to-layer="596" to-port="0"/>
		<edge from-layer="595" from-port="0" to-layer="596" to-port="1"/>
		<edge from-layer="596" from-port="2" to-layer="598" to-port="0"/>
		<edge from-layer="597" from-port="0" to-layer="598" to-port="1"/>
		<edge from-layer="598" from-port="2" to-layer="599" to-port="0"/>
		<edge from-layer="592" from-port="0" to-layer="599" to-port="1"/>
		<edge from-layer="591" from-port="5" to-layer="600" to-port="0"/>
		<edge from-layer="599" from-port="2" to-layer="600" to-port="1"/>
		<edge from-layer="600" from-port="2" to-layer="601" to-port="0"/>
		<edge from-layer="120" from-port="0" to-layer="601" to-port="1"/>
		<edge from-layer="601" from-port="2" to-layer="602" to-port="0"/>
		<edge from-layer="602" from-port="1" to-layer="603" to-port="0"/>
		<edge from-layer="116" from-port="0" to-layer="603" to-port="1"/>
		<edge from-layer="117" from-port="0" to-layer="603" to-port="2"/>
		<edge from-layer="118" from-port="0" to-layer="603" to-port="3"/>
		<edge from-layer="119" from-port="0" to-layer="603" to-port="4"/>
		<edge from-layer="604" from-port="0" to-layer="605" to-port="0"/>
		<edge from-layer="605" from-port="1" to-layer="607" to-port="0"/>
		<edge from-layer="606" from-port="0" to-layer="607" to-port="1"/>
		<edge from-layer="607" from-port="2" to-layer="609" to-port="0"/>
		<edge from-layer="608" from-port="0" to-layer="609" to-port="1"/>
		<edge from-layer="603" from-port="5" to-layer="610" to-port="0"/>
		<edge from-layer="609" from-port="2" to-layer="610" to-port="1"/>
		<edge from-layer="610" from-port="2" to-layer="612" to-port="0"/>
		<edge from-layer="611" from-port="0" to-layer="612" to-port="1"/>
		<edge from-layer="612" from-port="2" to-layer="613" to-port="0"/>
		<edge from-layer="613" from-port="1" to-layer="614" to-port="0"/>
		<edge from-layer="112" from-port="0" to-layer="614" to-port="1"/>
		<edge from-layer="113" from-port="0" to-layer="614" to-port="2"/>
		<edge from-layer="114" from-port="0" to-layer="614" to-port="3"/>
		<edge from-layer="115" from-port="0" to-layer="614" to-port="4"/>
		<edge from-layer="534" from-port="5" to-layer="615" to-port="0"/>
		<edge from-layer="614" from-port="5" to-layer="615" to-port="1"/>
		<edge from-layer="615" from-port="2" to-layer="616" to-port="0"/>
		<edge from-layer="108" from-port="0" to-layer="616" to-port="1"/>
		<edge from-layer="109" from-port="0" to-layer="616" to-port="2"/>
		<edge from-layer="110" from-port="0" to-layer="616" to-port="3"/>
		<edge from-layer="111" from-port="0" to-layer="616" to-port="4"/>
		<edge from-layer="617" from-port="0" to-layer="618" to-port="0"/>
		<edge from-layer="618" from-port="1" to-layer="620" to-port="0"/>
		<edge from-layer="619" from-port="0" to-layer="620" to-port="1"/>
		<edge from-layer="620" from-port="2" to-layer="622" to-port="0"/>
		<edge from-layer="621" from-port="0" to-layer="622" to-port="1"/>
		<edge from-layer="616" from-port="5" to-layer="623" to-port="0"/>
		<edge from-layer="622" from-port="2" to-layer="623" to-port="1"/>
		<edge from-layer="623" from-port="2" to-layer="625" to-port="0"/>
		<edge from-layer="624" from-port="0" to-layer="625" to-port="1"/>
		<edge from-layer="625" from-port="2" to-layer="626" to-port="0"/>
		<edge from-layer="626" from-port="1" to-layer="627" to-port="0"/>
		<edge from-layer="104" from-port="0" to-layer="627" to-port="1"/>
		<edge from-layer="105" from-port="0" to-layer="627" to-port="2"/>
		<edge from-layer="106" from-port="0" to-layer="627" to-port="3"/>
		<edge from-layer="107" from-port="0" to-layer="627" to-port="4"/>
		<edge from-layer="628" from-port="0" to-layer="629" to-port="0"/>
		<edge from-layer="629" from-port="1" to-layer="631" to-port="0"/>
		<edge from-layer="630" from-port="0" to-layer="631" to-port="1"/>
		<edge from-layer="631" from-port="2" to-layer="633" to-port="0"/>
		<edge from-layer="632" from-port="0" to-layer="633" to-port="1"/>
		<edge from-layer="627" from-port="5" to-layer="634" to-port="0"/>
		<edge from-layer="633" from-port="2" to-layer="634" to-port="1"/>
		<edge from-layer="634" from-port="2" to-layer="636" to-port="0"/>
		<edge from-layer="635" from-port="0" to-layer="636" to-port="1"/>
		<edge from-layer="636" from-port="2" to-layer="637" to-port="0"/>
		<edge from-layer="637" from-port="1" to-layer="638" to-port="0"/>
		<edge from-layer="100" from-port="0" to-layer="638" to-port="1"/>
		<edge from-layer="101" from-port="0" to-layer="638" to-port="2"/>
		<edge from-layer="102" from-port="0" to-layer="638" to-port="3"/>
		<edge from-layer="103" from-port="0" to-layer="638" to-port="4"/>
		<edge from-layer="639" from-port="0" to-layer="640" to-port="0"/>
		<edge from-layer="640" from-port="1" to-layer="642" to-port="0"/>
		<edge from-layer="641" from-port="0" to-layer="642" to-port="1"/>
		<edge from-layer="642" from-port="2" to-layer="644" to-port="0"/>
		<edge from-layer="643" from-port="0" to-layer="644" to-port="1"/>
		<edge from-layer="638" from-port="5" to-layer="645" to-port="0"/>
		<edge from-layer="644" from-port="2" to-layer="645" to-port="1"/>
		<edge from-layer="645" from-port="2" to-layer="647" to-port="0"/>
		<edge from-layer="646" from-port="0" to-layer="647" to-port="1"/>
		<edge from-layer="647" from-port="2" to-layer="648" to-port="0"/>
		<edge from-layer="648" from-port="1" to-layer="649" to-port="0"/>
		<edge from-layer="96" from-port="0" to-layer="649" to-port="1"/>
		<edge from-layer="97" from-port="0" to-layer="649" to-port="2"/>
		<edge from-layer="98" from-port="0" to-layer="649" to-port="3"/>
		<edge from-layer="99" from-port="0" to-layer="649" to-port="4"/>
		<edge from-layer="650" from-port="0" to-layer="651" to-port="0"/>
		<edge from-layer="651" from-port="1" to-layer="653" to-port="0"/>
		<edge from-layer="652" from-port="0" to-layer="653" to-port="1"/>
		<edge from-layer="653" from-port="2" to-layer="655" to-port="0"/>
		<edge from-layer="654" from-port="0" to-layer="655" to-port="1"/>
		<edge from-layer="649" from-port="5" to-layer="656" to-port="0"/>
		<edge from-layer="655" from-port="2" to-layer="656" to-port="1"/>
		<edge from-layer="656" from-port="2" to-layer="658" to-port="0"/>
		<edge from-layer="657" from-port="0" to-layer="658" to-port="1"/>
		<edge from-layer="658" from-port="2" to-layer="659" to-port="0"/>
		<edge from-layer="659" from-port="1" to-layer="660" to-port="0"/>
		<edge from-layer="92" from-port="0" to-layer="660" to-port="1"/>
		<edge from-layer="93" from-port="0" to-layer="660" to-port="2"/>
		<edge from-layer="94" from-port="0" to-layer="660" to-port="3"/>
		<edge from-layer="95" from-port="0" to-layer="660" to-port="4"/>
		<edge from-layer="661" from-port="0" to-layer="662" to-port="0"/>
		<edge from-layer="662" from-port="1" to-layer="664" to-port="0"/>
		<edge from-layer="663" from-port="0" to-layer="664" to-port="1"/>
		<edge from-layer="664" from-port="2" to-layer="666" to-port="0"/>
		<edge from-layer="665" from-port="0" to-layer="666" to-port="1"/>
		<edge from-layer="660" from-port="5" to-layer="667" to-port="0"/>
		<edge from-layer="666" from-port="2" to-layer="667" to-port="1"/>
		<edge from-layer="667" from-port="2" to-layer="669" to-port="0"/>
		<edge from-layer="668" from-port="0" to-layer="669" to-port="1"/>
		<edge from-layer="669" from-port="2" to-layer="670" to-port="0"/>
		<edge from-layer="670" from-port="1" to-layer="671" to-port="0"/>
		<edge from-layer="88" from-port="0" to-layer="671" to-port="1"/>
		<edge from-layer="89" from-port="0" to-layer="671" to-port="2"/>
		<edge from-layer="90" from-port="0" to-layer="671" to-port="3"/>
		<edge from-layer="91" from-port="0" to-layer="671" to-port="4"/>
		<edge from-layer="672" from-port="0" to-layer="673" to-port="0"/>
		<edge from-layer="673" from-port="1" to-layer="675" to-port="0"/>
		<edge from-layer="674" from-port="0" to-layer="675" to-port="1"/>
		<edge from-layer="675" from-port="2" to-layer="677" to-port="0"/>
		<edge from-layer="676" from-port="0" to-layer="677" to-port="1"/>
		<edge from-layer="671" from-port="5" to-layer="678" to-port="0"/>
		<edge from-layer="677" from-port="2" to-layer="678" to-port="1"/>
		<edge from-layer="678" from-port="2" to-layer="680" to-port="0"/>
		<edge from-layer="679" from-port="0" to-layer="680" to-port="1"/>
		<edge from-layer="680" from-port="2" to-layer="681" to-port="0"/>
		<edge from-layer="84" from-port="0" to-layer="681" to-port="1"/>
		<edge from-layer="85" from-port="0" to-layer="681" to-port="2"/>
		<edge from-layer="86" from-port="0" to-layer="681" to-port="3"/>
		<edge from-layer="87" from-port="0" to-layer="681" to-port="4"/>
		<edge from-layer="690" from-port="0" to-layer="691" to-port="0"/>
		<edge from-layer="691" from-port="1" to-layer="693" to-port="0"/>
		<edge from-layer="692" from-port="0" to-layer="693" to-port="1"/>
		<edge from-layer="693" from-port="2" to-layer="695" to-port="0"/>
		<edge from-layer="694" from-port="0" to-layer="695" to-port="1"/>
		<edge from-layer="660" from-port="5" to-layer="696" to-port="0"/>
		<edge from-layer="695" from-port="2" to-layer="696" to-port="1"/>
		<edge from-layer="696" from-port="2" to-layer="698" to-port="0"/>
		<edge from-layer="697" from-port="0" to-layer="698" to-port="1"/>
		<edge from-layer="698" from-port="2" to-layer="699" to-port="0"/>
		<edge from-layer="699" from-port="1" to-layer="700" to-port="0"/>
		<edge from-layer="686" from-port="0" to-layer="700" to-port="1"/>
		<edge from-layer="687" from-port="0" to-layer="700" to-port="2"/>
		<edge from-layer="688" from-port="0" to-layer="700" to-port="3"/>
		<edge from-layer="689" from-port="0" to-layer="700" to-port="4"/>
		<edge from-layer="701" from-port="0" to-layer="702" to-port="0"/>
		<edge from-layer="702" from-port="1" to-layer="704" to-port="0"/>
		<edge from-layer="703" from-port="0" to-layer="704" to-port="1"/>
		<edge from-layer="704" from-port="2" to-layer="706" to-port="0"/>
		<edge from-layer="705" from-port="0" to-layer="706" to-port="1"/>
		<edge from-layer="700" from-port="5" to-layer="707" to-port="0"/>
		<edge from-layer="706" from-port="2" to-layer="707" to-port="1"/>
		<edge from-layer="707" from-port="2" to-layer="709" to-port="0"/>
		<edge from-layer="708" from-port="0" to-layer="709" to-port="1"/>
		<edge from-layer="709" from-port="2" to-layer="710" to-port="0"/>
		<edge from-layer="682" from-port="0" to-layer="710" to-port="1"/>
		<edge from-layer="683" from-port="0" to-layer="710" to-port="2"/>
		<edge from-layer="684" from-port="0" to-layer="710" to-port="3"/>
		<edge from-layer="685" from-port="0" to-layer="710" to-port="4"/>
		<edge from-layer="681" from-port="5" to-layer="711" to-port="0"/>
		<edge from-layer="710" from-port="5" to-layer="711" to-port="1"/>
		<edge from-layer="627" from-port="5" to-layer="711" to-port="2"/>
		<edge from-layer="712" from-port="0" to-layer="713" to-port="0"/>
		<edge from-layer="713" from-port="1" to-layer="715" to-port="0"/>
		<edge from-layer="714" from-port="0" to-layer="715" to-port="1"/>
		<edge from-layer="715" from-port="2" to-layer="717" to-port="0"/>
		<edge from-layer="716" from-port="0" to-layer="717" to-port="1"/>
		<edge from-layer="711" from-port="3" to-layer="718" to-port="0"/>
		<edge from-layer="717" from-port="2" to-layer="718" to-port="1"/>
		<edge from-layer="718" from-port="2" to-layer="720" to-port="0"/>
		<edge from-layer="719" from-port="0" to-layer="720" to-port="1"/>
		<edge from-layer="720" from-port="2" to-layer="721" to-port="0"/>
		<edge from-layer="721" from-port="1" to-layer="722" to-port="0"/>
		<edge from-layer="80" from-port="0" to-layer="722" to-port="1"/>
		<edge from-layer="81" from-port="0" to-layer="722" to-port="2"/>
		<edge from-layer="82" from-port="0" to-layer="722" to-port="3"/>
		<edge from-layer="83" from-port="0" to-layer="722" to-port="4"/>
		<edge from-layer="723" from-port="0" to-layer="724" to-port="0"/>
		<edge from-layer="724" from-port="1" to-layer="726" to-port="0"/>
		<edge from-layer="725" from-port="0" to-layer="726" to-port="1"/>
		<edge from-layer="726" from-port="2" to-layer="728" to-port="0"/>
		<edge from-layer="727" from-port="0" to-layer="728" to-port="1"/>
		<edge from-layer="722" from-port="5" to-layer="729" to-port="0"/>
		<edge from-layer="728" from-port="2" to-layer="729" to-port="1"/>
		<edge from-layer="729" from-port="2" to-layer="731" to-port="0"/>
		<edge from-layer="730" from-port="0" to-layer="731" to-port="1"/>
		<edge from-layer="731" from-port="2" to-layer="732" to-port="0"/>
		<edge from-layer="732" from-port="1" to-layer="733" to-port="0"/>
		<edge from-layer="76" from-port="0" to-layer="733" to-port="1"/>
		<edge from-layer="77" from-port="0" to-layer="733" to-port="2"/>
		<edge from-layer="78" from-port="0" to-layer="733" to-port="3"/>
		<edge from-layer="79" from-port="0" to-layer="733" to-port="4"/>
		<edge from-layer="734" from-port="0" to-layer="735" to-port="0"/>
		<edge from-layer="735" from-port="1" to-layer="737" to-port="0"/>
		<edge from-layer="736" from-port="0" to-layer="737" to-port="1"/>
		<edge from-layer="737" from-port="2" to-layer="739" to-port="0"/>
		<edge from-layer="738" from-port="0" to-layer="739" to-port="1"/>
		<edge from-layer="733" from-port="5" to-layer="740" to-port="0"/>
		<edge from-layer="739" from-port="2" to-layer="740" to-port="1"/>
		<edge from-layer="740" from-port="2" to-layer="742" to-port="0"/>
		<edge from-layer="741" from-port="0" to-layer="742" to-port="1"/>
		<edge from-layer="742" from-port="2" to-layer="743" to-port="0"/>
		<edge from-layer="743" from-port="1" to-layer="744" to-port="0"/>
		<edge from-layer="72" from-port="0" to-layer="744" to-port="1"/>
		<edge from-layer="73" from-port="0" to-layer="744" to-port="2"/>
		<edge from-layer="74" from-port="0" to-layer="744" to-port="3"/>
		<edge from-layer="75" from-port="0" to-layer="744" to-port="4"/>
		<edge from-layer="722" from-port="5" to-layer="745" to-port="0"/>
		<edge from-layer="744" from-port="5" to-layer="745" to-port="1"/>
		<edge from-layer="745" from-port="2" to-layer="746" to-port="0"/>
		<edge from-layer="68" from-port="0" to-layer="746" to-port="1"/>
		<edge from-layer="69" from-port="0" to-layer="746" to-port="2"/>
		<edge from-layer="70" from-port="0" to-layer="746" to-port="3"/>
		<edge from-layer="71" from-port="0" to-layer="746" to-port="4"/>
		<edge from-layer="747" from-port="0" to-layer="748" to-port="0"/>
		<edge from-layer="748" from-port="1" to-layer="750" to-port="0"/>
		<edge from-layer="749" from-port="0" to-layer="750" to-port="1"/>
		<edge from-layer="750" from-port="2" to-layer="752" to-port="0"/>
		<edge from-layer="751" from-port="0" to-layer="752" to-port="1"/>
		<edge from-layer="746" from-port="5" to-layer="753" to-port="0"/>
		<edge from-layer="752" from-port="2" to-layer="753" to-port="1"/>
		<edge from-layer="753" from-port="2" to-layer="755" to-port="0"/>
		<edge from-layer="754" from-port="0" to-layer="755" to-port="1"/>
		<edge from-layer="755" from-port="2" to-layer="756" to-port="0"/>
		<edge from-layer="756" from-port="1" to-layer="757" to-port="0"/>
		<edge from-layer="64" from-port="0" to-layer="757" to-port="1"/>
		<edge from-layer="65" from-port="0" to-layer="757" to-port="2"/>
		<edge from-layer="66" from-port="0" to-layer="757" to-port="3"/>
		<edge from-layer="67" from-port="0" to-layer="757" to-port="4"/>
		<edge from-layer="758" from-port="0" to-layer="759" to-port="0"/>
		<edge from-layer="759" from-port="1" to-layer="761" to-port="0"/>
		<edge from-layer="760" from-port="0" to-layer="761" to-port="1"/>
		<edge from-layer="761" from-port="2" to-layer="763" to-port="0"/>
		<edge from-layer="762" from-port="0" to-layer="763" to-port="1"/>
		<edge from-layer="757" from-port="5" to-layer="764" to-port="0"/>
		<edge from-layer="763" from-port="2" to-layer="764" to-port="1"/>
		<edge from-layer="764" from-port="2" to-layer="766" to-port="0"/>
		<edge from-layer="765" from-port="0" to-layer="766" to-port="1"/>
		<edge from-layer="766" from-port="2" to-layer="767" to-port="0"/>
		<edge from-layer="767" from-port="1" to-layer="768" to-port="0"/>
		<edge from-layer="60" from-port="0" to-layer="768" to-port="1"/>
		<edge from-layer="61" from-port="0" to-layer="768" to-port="2"/>
		<edge from-layer="62" from-port="0" to-layer="768" to-port="3"/>
		<edge from-layer="63" from-port="0" to-layer="768" to-port="4"/>
		<edge from-layer="769" from-port="0" to-layer="770" to-port="0"/>
		<edge from-layer="770" from-port="1" to-layer="772" to-port="0"/>
		<edge from-layer="771" from-port="0" to-layer="772" to-port="1"/>
		<edge from-layer="772" from-port="2" to-layer="774" to-port="0"/>
		<edge from-layer="773" from-port="0" to-layer="774" to-port="1"/>
		<edge from-layer="768" from-port="5" to-layer="775" to-port="0"/>
		<edge from-layer="774" from-port="2" to-layer="775" to-port="1"/>
		<edge from-layer="775" from-port="2" to-layer="777" to-port="0"/>
		<edge from-layer="776" from-port="0" to-layer="777" to-port="1"/>
		<edge from-layer="777" from-port="2" to-layer="778" to-port="0"/>
		<edge from-layer="778" from-port="1" to-layer="779" to-port="0"/>
		<edge from-layer="56" from-port="0" to-layer="779" to-port="1"/>
		<edge from-layer="57" from-port="0" to-layer="779" to-port="2"/>
		<edge from-layer="58" from-port="0" to-layer="779" to-port="3"/>
		<edge from-layer="59" from-port="0" to-layer="779" to-port="4"/>
		<edge from-layer="757" from-port="5" to-layer="780" to-port="0"/>
		<edge from-layer="779" from-port="5" to-layer="780" to-port="1"/>
		<edge from-layer="780" from-port="2" to-layer="781" to-port="0"/>
		<edge from-layer="52" from-port="0" to-layer="781" to-port="1"/>
		<edge from-layer="53" from-port="0" to-layer="781" to-port="2"/>
		<edge from-layer="54" from-port="0" to-layer="781" to-port="3"/>
		<edge from-layer="55" from-port="0" to-layer="781" to-port="4"/>
		<edge from-layer="782" from-port="0" to-layer="783" to-port="0"/>
		<edge from-layer="783" from-port="1" to-layer="785" to-port="0"/>
		<edge from-layer="784" from-port="0" to-layer="785" to-port="1"/>
		<edge from-layer="785" from-port="2" to-layer="787" to-port="0"/>
		<edge from-layer="786" from-port="0" to-layer="787" to-port="1"/>
		<edge from-layer="781" from-port="5" to-layer="788" to-port="0"/>
		<edge from-layer="787" from-port="2" to-layer="788" to-port="1"/>
		<edge from-layer="788" from-port="2" to-layer="790" to-port="0"/>
		<edge from-layer="789" from-port="0" to-layer="790" to-port="1"/>
		<edge from-layer="790" from-port="2" to-layer="791" to-port="0"/>
		<edge from-layer="791" from-port="1" to-layer="792" to-port="0"/>
		<edge from-layer="48" from-port="0" to-layer="792" to-port="1"/>
		<edge from-layer="49" from-port="0" to-layer="792" to-port="2"/>
		<edge from-layer="50" from-port="0" to-layer="792" to-port="3"/>
		<edge from-layer="51" from-port="0" to-layer="792" to-port="4"/>
		<edge from-layer="793" from-port="0" to-layer="794" to-port="0"/>
		<edge from-layer="794" from-port="1" to-layer="796" to-port="0"/>
		<edge from-layer="795" from-port="0" to-layer="796" to-port="1"/>
		<edge from-layer="796" from-port="2" to-layer="798" to-port="0"/>
		<edge from-layer="797" from-port="0" to-layer="798" to-port="1"/>
		<edge from-layer="792" from-port="5" to-layer="799" to-port="0"/>
		<edge from-layer="798" from-port="2" to-layer="799" to-port="1"/>
		<edge from-layer="799" from-port="2" to-layer="801" to-port="0"/>
		<edge from-layer="800" from-port="0" to-layer="801" to-port="1"/>
		<edge from-layer="801" from-port="2" to-layer="802" to-port="0"/>
		<edge from-layer="802" from-port="1" to-layer="803" to-port="0"/>
		<edge from-layer="44" from-port="0" to-layer="803" to-port="1"/>
		<edge from-layer="45" from-port="0" to-layer="803" to-port="2"/>
		<edge from-layer="46" from-port="0" to-layer="803" to-port="3"/>
		<edge from-layer="47" from-port="0" to-layer="803" to-port="4"/>
		<edge from-layer="804" from-port="0" to-layer="805" to-port="0"/>
		<edge from-layer="805" from-port="1" to-layer="807" to-port="0"/>
		<edge from-layer="806" from-port="0" to-layer="807" to-port="1"/>
		<edge from-layer="807" from-port="2" to-layer="809" to-port="0"/>
		<edge from-layer="808" from-port="0" to-layer="809" to-port="1"/>
		<edge from-layer="803" from-port="5" to-layer="810" to-port="0"/>
		<edge from-layer="809" from-port="2" to-layer="810" to-port="1"/>
		<edge from-layer="810" from-port="2" to-layer="812" to-port="0"/>
		<edge from-layer="811" from-port="0" to-layer="812" to-port="1"/>
		<edge from-layer="812" from-port="2" to-layer="813" to-port="0"/>
		<edge from-layer="813" from-port="1" to-layer="814" to-port="0"/>
		<edge from-layer="40" from-port="0" to-layer="814" to-port="1"/>
		<edge from-layer="41" from-port="0" to-layer="814" to-port="2"/>
		<edge from-layer="42" from-port="0" to-layer="814" to-port="3"/>
		<edge from-layer="43" from-port="0" to-layer="814" to-port="4"/>
		<edge from-layer="792" from-port="5" to-layer="815" to-port="0"/>
		<edge from-layer="814" from-port="5" to-layer="815" to-port="1"/>
		<edge from-layer="815" from-port="2" to-layer="816" to-port="0"/>
		<edge from-layer="36" from-port="0" to-layer="816" to-port="1"/>
		<edge from-layer="37" from-port="0" to-layer="816" to-port="2"/>
		<edge from-layer="38" from-port="0" to-layer="816" to-port="3"/>
		<edge from-layer="39" from-port="0" to-layer="816" to-port="4"/>
		<edge from-layer="817" from-port="0" to-layer="818" to-port="0"/>
		<edge from-layer="818" from-port="1" to-layer="820" to-port="0"/>
		<edge from-layer="819" from-port="0" to-layer="820" to-port="1"/>
		<edge from-layer="820" from-port="2" to-layer="822" to-port="0"/>
		<edge from-layer="821" from-port="0" to-layer="822" to-port="1"/>
		<edge from-layer="816" from-port="5" to-layer="823" to-port="0"/>
		<edge from-layer="822" from-port="2" to-layer="823" to-port="1"/>
		<edge from-layer="823" from-port="2" to-layer="825" to-port="0"/>
		<edge from-layer="824" from-port="0" to-layer="825" to-port="1"/>
		<edge from-layer="825" from-port="2" to-layer="826" to-port="0"/>
		<edge from-layer="826" from-port="1" to-layer="827" to-port="0"/>
		<edge from-layer="32" from-port="0" to-layer="827" to-port="1"/>
		<edge from-layer="33" from-port="0" to-layer="827" to-port="2"/>
		<edge from-layer="34" from-port="0" to-layer="827" to-port="3"/>
		<edge from-layer="35" from-port="0" to-layer="827" to-port="4"/>
		<edge from-layer="828" from-port="0" to-layer="829" to-port="0"/>
		<edge from-layer="829" from-port="1" to-layer="831" to-port="0"/>
		<edge from-layer="830" from-port="0" to-layer="831" to-port="1"/>
		<edge from-layer="831" from-port="2" to-layer="833" to-port="0"/>
		<edge from-layer="832" from-port="0" to-layer="833" to-port="1"/>
		<edge from-layer="827" from-port="5" to-layer="834" to-port="0"/>
		<edge from-layer="833" from-port="2" to-layer="834" to-port="1"/>
		<edge from-layer="834" from-port="2" to-layer="836" to-port="0"/>
		<edge from-layer="835" from-port="0" to-layer="836" to-port="1"/>
		<edge from-layer="836" from-port="2" to-layer="837" to-port="0"/>
		<edge from-layer="837" from-port="1" to-layer="838" to-port="0"/>
		<edge from-layer="28" from-port="0" to-layer="838" to-port="1"/>
		<edge from-layer="29" from-port="0" to-layer="838" to-port="2"/>
		<edge from-layer="30" from-port="0" to-layer="838" to-port="3"/>
		<edge from-layer="31" from-port="0" to-layer="838" to-port="4"/>
		<edge from-layer="839" from-port="0" to-layer="840" to-port="0"/>
		<edge from-layer="840" from-port="1" to-layer="842" to-port="0"/>
		<edge from-layer="841" from-port="0" to-layer="842" to-port="1"/>
		<edge from-layer="842" from-port="2" to-layer="844" to-port="0"/>
		<edge from-layer="843" from-port="0" to-layer="844" to-port="1"/>
		<edge from-layer="838" from-port="5" to-layer="845" to-port="0"/>
		<edge from-layer="844" from-port="2" to-layer="845" to-port="1"/>
		<edge from-layer="845" from-port="2" to-layer="847" to-port="0"/>
		<edge from-layer="846" from-port="0" to-layer="847" to-port="1"/>
		<edge from-layer="847" from-port="2" to-layer="848" to-port="0"/>
		<edge from-layer="848" from-port="1" to-layer="849" to-port="0"/>
		<edge from-layer="24" from-port="0" to-layer="849" to-port="1"/>
		<edge from-layer="25" from-port="0" to-layer="849" to-port="2"/>
		<edge from-layer="26" from-port="0" to-layer="849" to-port="3"/>
		<edge from-layer="27" from-port="0" to-layer="849" to-port="4"/>
		<edge from-layer="827" from-port="5" to-layer="850" to-port="0"/>
		<edge from-layer="849" from-port="5" to-layer="850" to-port="1"/>
		<edge from-layer="850" from-port="2" to-layer="851" to-port="0"/>
		<edge from-layer="20" from-port="0" to-layer="851" to-port="1"/>
		<edge from-layer="21" from-port="0" to-layer="851" to-port="2"/>
		<edge from-layer="22" from-port="0" to-layer="851" to-port="3"/>
		<edge from-layer="23" from-port="0" to-layer="851" to-port="4"/>
		<edge from-layer="852" from-port="0" to-layer="853" to-port="0"/>
		<edge from-layer="853" from-port="1" to-layer="855" to-port="0"/>
		<edge from-layer="854" from-port="0" to-layer="855" to-port="1"/>
		<edge from-layer="855" from-port="2" to-layer="857" to-port="0"/>
		<edge from-layer="856" from-port="0" to-layer="857" to-port="1"/>
		<edge from-layer="851" from-port="5" to-layer="858" to-port="0"/>
		<edge from-layer="857" from-port="2" to-layer="858" to-port="1"/>
		<edge from-layer="858" from-port="2" to-layer="860" to-port="0"/>
		<edge from-layer="859" from-port="0" to-layer="860" to-port="1"/>
		<edge from-layer="860" from-port="2" to-layer="861" to-port="0"/>
		<edge from-layer="861" from-port="1" to-layer="862" to-port="0"/>
		<edge from-layer="16" from-port="0" to-layer="862" to-port="1"/>
		<edge from-layer="17" from-port="0" to-layer="862" to-port="2"/>
		<edge from-layer="18" from-port="0" to-layer="862" to-port="3"/>
		<edge from-layer="19" from-port="0" to-layer="862" to-port="4"/>
		<edge from-layer="863" from-port="0" to-layer="864" to-port="0"/>
		<edge from-layer="864" from-port="1" to-layer="866" to-port="0"/>
		<edge from-layer="865" from-port="0" to-layer="866" to-port="1"/>
		<edge from-layer="866" from-port="2" to-layer="868" to-port="0"/>
		<edge from-layer="867" from-port="0" to-layer="868" to-port="1"/>
		<edge from-layer="862" from-port="5" to-layer="869" to-port="0"/>
		<edge from-layer="868" from-port="2" to-layer="869" to-port="1"/>
		<edge from-layer="869" from-port="2" to-layer="871" to-port="0"/>
		<edge from-layer="870" from-port="0" to-layer="871" to-port="1"/>
		<edge from-layer="871" from-port="2" to-layer="872" to-port="0"/>
		<edge from-layer="872" from-port="1" to-layer="873" to-port="0"/>
		<edge from-layer="12" from-port="0" to-layer="873" to-port="1"/>
		<edge from-layer="13" from-port="0" to-layer="873" to-port="2"/>
		<edge from-layer="14" from-port="0" to-layer="873" to-port="3"/>
		<edge from-layer="15" from-port="0" to-layer="873" to-port="4"/>
		<edge from-layer="874" from-port="0" to-layer="875" to-port="0"/>
		<edge from-layer="875" from-port="1" to-layer="877" to-port="0"/>
		<edge from-layer="876" from-port="0" to-layer="877" to-port="1"/>
		<edge from-layer="877" from-port="2" to-layer="879" to-port="0"/>
		<edge from-layer="878" from-port="0" to-layer="879" to-port="1"/>
		<edge from-layer="873" from-port="5" to-layer="880" to-port="0"/>
		<edge from-layer="879" from-port="2" to-layer="880" to-port="1"/>
		<edge from-layer="880" from-port="2" to-layer="882" to-port="0"/>
		<edge from-layer="881" from-port="0" to-layer="882" to-port="1"/>
		<edge from-layer="882" from-port="2" to-layer="883" to-port="0"/>
		<edge from-layer="883" from-port="1" to-layer="884" to-port="0"/>
		<edge from-layer="8" from-port="0" to-layer="884" to-port="1"/>
		<edge from-layer="9" from-port="0" to-layer="884" to-port="2"/>
		<edge from-layer="10" from-port="0" to-layer="884" to-port="3"/>
		<edge from-layer="11" from-port="0" to-layer="884" to-port="4"/>
		<edge from-layer="862" from-port="5" to-layer="885" to-port="0"/>
		<edge from-layer="884" from-port="5" to-layer="885" to-port="1"/>
		<edge from-layer="885" from-port="2" to-layer="886" to-port="0"/>
		<edge from-layer="4" from-port="0" to-layer="886" to-port="1"/>
		<edge from-layer="5" from-port="0" to-layer="886" to-port="2"/>
		<edge from-layer="6" from-port="0" to-layer="886" to-port="3"/>
		<edge from-layer="7" from-port="0" to-layer="886" to-port="4"/>
		<edge from-layer="887" from-port="0" to-layer="888" to-port="0"/>
		<edge from-layer="888" from-port="1" to-layer="890" to-port="0"/>
		<edge from-layer="889" from-port="0" to-layer="890" to-port="1"/>
		<edge from-layer="890" from-port="2" to-layer="892" to-port="0"/>
		<edge from-layer="891" from-port="0" to-layer="892" to-port="1"/>
		<edge from-layer="886" from-port="5" to-layer="893" to-port="0"/>
		<edge from-layer="892" from-port="2" to-layer="893" to-port="1"/>
		<edge from-layer="893" from-port="2" to-layer="895" to-port="0"/>
		<edge from-layer="894" from-port="0" to-layer="895" to-port="1"/>
		<edge from-layer="895" from-port="2" to-layer="896" to-port="0"/>
		<edge from-layer="896" from-port="1" to-layer="897" to-port="0"/>
		<edge from-layer="0" from-port="0" to-layer="897" to-port="1"/>
		<edge from-layer="1" from-port="0" to-layer="897" to-port="2"/>
		<edge from-layer="2" from-port="0" to-layer="897" to-port="3"/>
		<edge from-layer="3" from-port="0" to-layer="897" to-port="4"/>
		<edge from-layer="898" from-port="0" to-layer="899" to-port="0"/>
		<edge from-layer="899" from-port="1" to-layer="901" to-port="0"/>
		<edge from-layer="900" from-port="0" to-layer="901" to-port="1"/>
		<edge from-layer="901" from-port="2" to-layer="903" to-port="0"/>
		<edge from-layer="902" from-port="0" to-layer="903" to-port="1"/>
		<edge from-layer="897" from-port="5" to-layer="904" to-port="0"/>
		<edge from-layer="903" from-port="2" to-layer="904" to-port="1"/>
		<edge from-layer="904" from-port="2" to-layer="906" to-port="0"/>
		<edge from-layer="905" from-port="0" to-layer="906" to-port="1"/>
		<edge from-layer="906" from-port="2" to-layer="907" to-port="0"/>
		<edge from-layer="912" from-port="0" to-layer="913" to-port="0"/>
		<edge from-layer="913" from-port="1" to-layer="915" to-port="0"/>
		<edge from-layer="914" from-port="0" to-layer="915" to-port="1"/>
		<edge from-layer="915" from-port="2" to-layer="917" to-port="0"/>
		<edge from-layer="916" from-port="0" to-layer="917" to-port="1"/>
		<edge from-layer="886" from-port="5" to-layer="918" to-port="0"/>
		<edge from-layer="917" from-port="2" to-layer="918" to-port="1"/>
		<edge from-layer="918" from-port="2" to-layer="920" to-port="0"/>
		<edge from-layer="919" from-port="0" to-layer="920" to-port="1"/>
		<edge from-layer="920" from-port="2" to-layer="921" to-port="0"/>
		<edge from-layer="921" from-port="1" to-layer="922" to-port="0"/>
		<edge from-layer="908" from-port="0" to-layer="922" to-port="1"/>
		<edge from-layer="909" from-port="0" to-layer="922" to-port="2"/>
		<edge from-layer="910" from-port="0" to-layer="922" to-port="3"/>
		<edge from-layer="911" from-port="0" to-layer="922" to-port="4"/>
		<edge from-layer="923" from-port="0" to-layer="924" to-port="0"/>
		<edge from-layer="924" from-port="1" to-layer="926" to-port="0"/>
		<edge from-layer="925" from-port="0" to-layer="926" to-port="1"/>
		<edge from-layer="926" from-port="2" to-layer="928" to-port="0"/>
		<edge from-layer="927" from-port="0" to-layer="928" to-port="1"/>
		<edge from-layer="922" from-port="5" to-layer="929" to-port="0"/>
		<edge from-layer="928" from-port="2" to-layer="929" to-port="1"/>
		<edge from-layer="929" from-port="2" to-layer="931" to-port="0"/>
		<edge from-layer="930" from-port="0" to-layer="931" to-port="1"/>
		<edge from-layer="931" from-port="2" to-layer="932" to-port="0"/>
	</edges>
	<meta_data>
		<MO_version value="custom_HEAD_149c43044cb1e8ed8cd4f3f196b23f7b3f129a36"/>
		<cli_parameters>
			<caffe_parser_path value="DIR"/>
			<data_type value="FP16"/>
			<disable_nhwc_to_nchw value="False"/>
			<disable_omitting_optional value="False"/>
			<disable_resnet_optimization value="False"/>
			<disable_weights_compression value="False"/>
			<enable_concat_optimization value="False"/>
			<enable_flattening_nested_params value="False"/>
			<enable_ssd_gluoncv value="False"/>
			<extensions value="DIR"/>
			<framework value="caffe"/>
			<freeze_placeholder_with_value value="{}"/>
			<generate_deprecated_IR_V7 value="False"/>
			<input value="data"/>
			<input_model value="DIR/icv-hpe-0001.caffemodel"/>
			<input_model_is_text value="False"/>
			<input_proto value="DIR/icv-hpe-0001.prototxt"/>
			<input_shape value="[1,3,256,456]"/>
			<k value="DIR/CustomLayersMapping.xml"/>
			<keep_shape_ops value="True"/>
			<legacy_ir_generation value="False"/>
			<legacy_mxnet_model value="False"/>
			<log_level value="ERROR"/>
			<mean_scale_values value="{'data': {'mean': array([128., 128., 128.]), 'scale': array([255.])}}"/>
			<mean_values value="data[128.0,128.0,128.0]"/>
			<model_name value="human-pose-estimation-0001"/>
			<output value="['Mconv7_stage2_L1', 'Mconv7_stage2_L2']"/>
			<output_dir value="DIR"/>
			<placeholder_data_types value="{}"/>
			<placeholder_shapes value="{'data': array([  1,   3, 256, 456])}"/>
			<progress value="False"/>
			<remove_memory value="False"/>
			<remove_output_softmax value="False"/>
			<reverse_input_channels value="False"/>
			<save_params_from_nd value="False"/>
			<scale_values value="data[255.0]"/>
			<silent value="False"/>
			<static_shape value="False"/>
			<stream_output value="False"/>
			<transform value=""/>
			<unset unset_cli_parameters="batch, counts, disable_fusing, disable_gfusing, finegrain_fusing, input_checkpoint, input_meta_graph, input_symbol, mean_file, mean_file_offsets, move_to_preprocess, nd_prefix_name, pretrained_model_name, saved_model_dir, saved_model_tags, scale, tensorboard_logdir, tensorflow_custom_layer_libraries, tensorflow_custom_operations_config_update, tensorflow_object_detection_api_pipeline_config, tensorflow_use_custom_operations_config, transformations_config"/>
		</cli_parameters>
	</meta_data>
	<quantization_parameters>
		<config>{
		'compression': {
			'algorithms': [
				{
					'name': 'DefaultQuantization',
					'params': {
						'num_samples_for_tuning': 2000,
						'preset': 'performance',
						'stat_subset_size': 300,
						'use_layerwise_tuning': false
					}
				}
			],
			'dump_intermediate_model': true,
			'target_device': 'ANY'
		},
		'engine': {
			'models': [
				{
					'name': 'human-pose-estimation-0001',
					'launchers': [
						{
							'framework': 'dlsdk',
							'allow_reshape_input': true,
							'adapter': {
								'type': 'human_pose_estimation',
								'part_affinity_fields_out': 'Mconv7_stage2_L1',
								'keypoints_heatmap_out': 'Mconv7_stage2_L2'
							},
							'device': 'CPU'
						}
					],
					'datasets': [
						{
							'name': 'ms_coco_keypoints',
							'data_source': 'PATH',
							'annotation_conversion': {
								'converter': 'mscoco_keypoints',
								'annotation_file': 'PATH'
							},
							'annotation': 'PATH',
							'dataset_meta': 'PATH',
							'preprocessing': [
								{
									'type': 'resize',
									'size': 368,
									'interpolation': 'CUBIC',
									'aspect_ratio_scale': 'width'
								},
								{
									'type': 'padding',
									'stride': 8
								}
							],
							'postprocessing': [
								{
									'type': 'filter',
									'apply_to': 'annotation',
									'area_range': '1, 10000000000'
								},
								{
									'type': 'filter',
									'apply_to': 'prediction',
									'area_range': '1, 10000000000'
								}
							],
							'metrics': [
								{
									'name': 'AP',
									'type': 'coco_precision',
									'max_detections': 20
								}
							],
							'_command_line_mapping': {
								'annotation_file': 'PATH'
							}
						}
					]
				}
			],
			'stat_requests_number': null,
			'eval_requests_number': null,
			'type': 'accuracy_checker'
		}
	}</config>
		<version value="1.0"/>
		<cli_params value="{'quantize': None, 'preset': None, 'model': None, 'weights': None, 'name': None, 'ac_config': None, 'max_drop': None, 'evaluate': False, 'output_dir': 'PATH', 'direct_dump': True, 'log_level': 'INFO', 'pbar': False, 'stream_output': False, 'keep_uncompressed_weights': False}"/>
	</quantization_parameters>
</net>
